…
<MessageQueue.MessageQueue instance at 0x7f6e441348c0>
<Login.LoginActionTest instance at 0x7f6e44134128>
<MessageQueue.MessageQueue instance at 0x7f6e44134a70>
001102
0-th processing has been started
001098
1-th processing has been started
001104
2-th processing has been started
WARNING: Logging before InitGoogleLogging() is written to STDERR
I0527 15:12:12.360540  6106 net.cpp:46] Initializing net from parameters: 
name: "GoogleNet"
input: "data"
input_dim: 10
input_dim: 3
input_dim: 224
input_dim: 224
force_backward: true
state {
  phase: TEST
}
layer {
  name: "conv1/7x7_s2"
  type: "Convolution"
  bottom: "data"
  top: "conv1/7x7_s2"
  param {
    lr_mult: 1
    decay_mult: 1
  }
  param {
    lr_mult: 2
    decay_mult: 0
  }
  convolution_param {
    num_output: 64
    pad: 3
    kernel_size: 7
    stride: 2
    weight_filler {
      type: "xavier"
      std: 0.1
    }
    bias_filler {
      type: "constant"
      value: 0.2
    }
  }
}
layer {
  name: "conv1/relu_7x7"
  type: "ReLU"
  bottom: "conv1/7x7_s2"
  top: "conv1/7x7_s2"
}
layer {
  name: "pool1/3x3_s2"
  type: "Pooling"
  bottom: "conv1/7x7_s2"
  top: "pool1/3x3_s2"
  pooling_param {
    pool: MAX
    kernel_size: 3
    stride: 2
  }
}
layer {
  name: "pool1/norm1"
  type: "LRN"
  bottom: "pool1/3x3_s2"
  top: "pool1/norm1"
  lrn_param {
    local_size: 5
    alpha: 0.0001
    beta: 0.75
  }
}
layer {
  name: "conv2/3x3_reduce"
  type: "Convolution"
  bottom: "pool1/norm1"
  top: "conv2/3x3_reduce"
  param {
    lr_mult: 1
    decay_mult: 1
  }
  param {
    lr_mult: 2
    decay_mult: 0
  }
  convolution_param {
    num_output: 64
    kernel_size: 1
    weight_filler {
      type: "xavier"
      std: 0.1
    }
    bias_filler {
      type: "constant"
      value: 0.2
    }
  }
}
layer {
  name: "conv2/relu_3x3_reduce"
  type: "ReLU"
  bottom: "conv2/3x3_reduce"
  top: "conv2/3x3_reduce"
}
layer {
  name: "conv2/3x3"
  type: "Convolution"
  bottom: "conv2/3x3_reduce"
  top: "conv2/3x3"
  param {
    lr_mult: 1
    decay_mult: 1
  }
  param {
    lr_mult: 2
    decay_mult: 0
  }
  convolution_param {
    num_output: 192
    pad: 1
    kernel_size: 3
    weight_filler {
      type: "xavier"
      std: 0.03
    }
    bias_filler {
      type: "constant"
      value: 0.2
    }
  }
}
layer {
  name: "conv2/relu_3x3"
  type: "ReLU"
  bottom: "conv2/3x3"
  top: "conv2/3x3"
}
layer {
  name: "conv2/norm2"
  type: "LRN"
  bottom: "conv2/3x3"
  top: "conv2/norm2"
  lrn_param {
    local_size: 5
    alpha: 0.0001
    beta: 0.75
  }
}
layer {
  name: "pool2/3x3_s2"
  type: "Pooling"
  bottom: "conv2/norm2"
  top: "pool2/3x3_s2"
  pooling_param {
    pool: MAX
    kernel_size: 3
    stride: 2
  }
}
layer {
  name: "inception_3a/1x1"
  type: "Convolution"
  bottom: "pool2/3x3_s2"
  top: "inception_3a/1x1"
  param {
    lr_mult: 1
    decay_mult: 1
  }
  param {
    lr_mult: 2
    decay_mult: 0
  }
  convolution_param {
    num_output: 64
    kernel_size: 1
    weight_filler {
      type: "xavier"
      std: 0.03
    }
    bias_filler {
      type: "constant"
      value: 0.2
    }
  }
}
layer {
  name: "inception_3a/relu_1x1"
  type: "ReLU"
  bottom: "inception_3a/1x1"
  top: "inception_3a/1x1"
}
layer {
  name: "inception_3a/3x3_reduce"
  type: "Convolution"
  bottom: "pool2/3x3_s2"
  top: "inception_3a/3x3_reduce"
  param {
    lr_mult: 1
    decay_mult: 1
  }
  param {
    lr_mult: 2
    decay_mult: 0
  }
  convolution_param {
    num_output: 96
    kernel_size: 1
    weight_filler {
      type: "xavier"
      std: 0.09
    }
    bias_filler {
      type: "constant"
      value: 0.2
    }
  }
}
layer {
  name: "inception_3a/relu_3x3_reduce"
  type: "ReLU"
  bottom: "inception_3a/3x3_reduce"
  top: "inception_3a/3x3_reduce"
}
layer {
  name: "inception_3a/3x3"
  type: "Convolution"
  bottom: "inception_3a/3x3_reduce"
  top: "inception_3a/3x3"
  param {
    lr_mult: 1
    decay_mult: 1
  }
  param {
    lr_mult: 2
    decay_mult: 0
  }
  convolution_param {
    num_output: 128
    pad: 1
    kernel_size: 3
    weight_filler {
      type: "xavier"
      std: 0.03
    }
    bias_filler {
      type: "constant"
      value: 0.2
    }
  }
}
layer {
  name: "inception_3a/relu_3x3"
  type: "ReLU"
  bottom: "inception_3a/3x3"
  top: "inception_3a/3x3"
}
layer {
  name: "inception_3a/5x5_reduce"
  type: "Convolution"
  bottom: "pool2/3x3_s2"
  top: "inception_3a/5x5_reduce"
  param {
    lr_mult: 1
    decay_mult: 1
  }
  param {
    lr_mult: 2
    decay_mult: 0
  }
  convolution_param {
    num_output: 16
    kernel_size: 1
    weight_filler {
      type: "xavier"
      std: 0.2
    }
    bias_filler {
      type: "constant"
      value: 0.2
    }
  }
}
layer {
  name: "inception_3a/relu_5x5_reduce"
  type: "ReLU"
  bottom: "inception_3a/5x5_reduce"
  top: "inception_3a/5x5_reduce"
}
layer {
  name: "inception_3a/5x5"
  type: "Convolution"
  bottom: "inception_3a/5x5_reduce"
  top: "inception_3a/5x5"
  param {
    lr_mult: 1
    decay_mult: 1
  }
  param {
    lr_mult: 2
    decay_mult: 0
  }
  convolution_param {
    num_output: 32
    pad: 2
    kernel_size: 5
    weight_filler {
      type: "xavier"
      std: 0.03
    }
    bias_filler {
      type: "constant"
      value: 0.2
    }
  }
}
layer {
  name: "inception_3a/relu_5x5"
  type: "ReLU"
  bottom: "inception_3a/5x5"
  top: "inception_3a/5x5"
}
layer {
  name: "inception_3a/pool"
  type: "Pooling"
  bottom: "pool2/3x3_s2"
  top: "inception_3a/pool"
  pooling_param {
    pool: MAX
    kernel_size: 3
    stride: 1
    pad: 1
  }
}
layer {
  name: "inception_3a/pool_proj"
  type: "Convolution"
  bottom: "inception_3a/pool"
  top: "inception_3a/pool_proj"
  param {
    lr_mult: 1
    decay_mult: 1
  }
  param {
    lr_mult: 2
    decay_mult: 0
  }
  convolution_param {
    num_output: 32
    kernel_size: 1
    weight_filler {
      type: "xavier"
      std: 0.1
    }
    bias_filler {
      type: "constant"
      value: 0.2
    }
  }
}
layer {
  name: "inception_3a/relu_pool_proj"
  type: "ReLU"
  bottom: "inception_3a/pool_proj"
  top: "inception_3a/pool_proj"
}
layer {
  name: "inception_3a/output"
  type: "Concat"
  bottom: "inception_3a/1x1"
  bottom: "inception_3a/3x3"
  bottom: "inception_3a/5x5"
  bottom: "inception_3a/pool_proj"
  top: "inception_3a/output"
}
layer {
  name: "inception_3b/1x1"
  type: "Convolution"
  bottom: "inception_3a/output"
  top: "inception_3b/1x1"
  param {
    lr_mult: 1
    decay_mult: 1
  }
  param {
    lr_mult: 2
    decay_mult: 0
  }
  convolution_param {
    num_output: 128
    kernel_size: 1
    weight_filler {
      type: "xavier"
      std: 0.03
    }
    bias_filler {
      type: "constant"
      value: 0.2
    }
  }
}
layer {
  name: "inception_3b/relu_1x1"
  type: "ReLU"
  bottom: "inception_3b/1x1"
  top: "inception_3b/1x1"
}
layer {
  name: "inception_3b/3x3_reduce"
  type: "Convolution"
  bottom: "inception_3a/output"
  top: "inception_3b/3x3_reduce"
  param {
    lr_mult: 1
    decay_mult: 1
  }
  param {
    lr_mult: 2
    decay_mult: 0
  }
  convolution_param {
    num_output: 128
    kernel_size: 1
    weight_filler {
      type: "xavier"
      std: 0.09
    }
    bias_filler {
      type: "constant"
      value: 0.2
    }
  }
}
layer {
  name: "inception_3b/relu_3x3_reduce"
  type: "ReLU"
  bottom: "inception_3b/3x3_reduce"
  top: "inception_3b/3x3_reduce"
}
layer {
  name: "inception_3b/3x3"
  type: "Convolution"
  bottom: "inception_3b/3x3_reduce"
  top: "inception_3b/3x3"
  param {
    lr_mult: 1
    decay_mult: 1
  }
  param {
    lr_mult: 2
    decay_mult: 0
  }
  convolution_param {
    num_output: 192
    pad: 1
    kernel_size: 3
    weight_filler {
      type: "xavier"
      std: 0.03
    }
    bias_filler {
      type: "constant"
      value: 0.2
    }
  }
}
layer {
  name: "inception_3b/relu_3x3"
  type: "ReLU"
  bottom: "inception_3b/3x3"
  top: "inception_3b/3x3"
}
layer {
  name: "inception_3b/5x5_reduce"
  type: "Convolution"
  bottom: "inception_3a/output"
  top: "inception_3b/5x5_reduce"
  param {
    lr_mult: 1
    decay_mult: 1
  }
  param {
    lr_mult: 2
    decay_mult: 0
  }
  convolution_param {
    num_output: 32
    kernel_size: 1
    weight_filler {
      type: "xavier"
      std: 0.2
    }
    bias_filler {
      type: "constant"
      value: 0.2
    }
  }
}
layer {
  name: "inception_3b/relu_5x5_reduce"
  type: "ReLU"
  bottom: "inception_3b/5x5_reduce"
  top: "inception_3b/5x5_reduce"
}
layer {
  name: "inception_3b/5x5"
  type: "Convolution"
  bottom: "inception_3b/5x5_reduce"
  top: "inception_3b/5x5"
  param {
    lr_mult: 1
    decay_mult: 1
  }
  param {
    lr_mult: 2
    decay_mult: 0
  }
  convolution_param {
    num_output: 96
    pad: 2
    kernel_size: 5
    weight_filler {
      type: "xavier"
      std: 0.03
    }
    bias_filler {
      type: "constant"
      value: 0.2
    }
  }
}
layer {
  name: "inception_3b/relu_5x5"
  type: "ReLU"
  bottom: "inception_3b/5x5"
  top: "inception_3b/5x5"
}
layer {
  name: "inception_3b/pool"
  type: "Pooling"
  bottom: "inception_3a/output"
  top: "inception_3b/pool"
  pooling_param {
    pool: MAX
    kernel_size: 3
    stride: 1
    pad: 1
  }
}
layer {
  name: "inception_3b/pool_proj"
  type: "Convolution"
  bottom: "inception_3b/pool"
  top: "inception_3b/pool_proj"
  param {
    lr_mult: 1
    decay_mult: 1
  }
  param {
    lr_mult: 2
    decay_mult: 0
  }
  convolution_param {
    num_output: 64
    kernel_size: 1
    weight_filler {
      type: "xavier"
      std: 0.1
    }
    bias_filler {
      type: "constant"
      value: 0.2
    }
  }
}
layer {
  name: "inception_3b/relu_pool_proj"
  type: "ReLU"
  bottom: "inception_3b/pool_proj"
  top: "inception_3b/pool_proj"
}
layer {
  name: "inception_3b/output"
  type: "Concat"
  bottom: "inception_3b/1x1"
  bottom: "inception_3b/3x3"
  bottom: "inception_3b/5x5"
  bottom: "inception_3b/pool_proj"
  top: "inception_3b/output"
}
layer {
  name: "pool3/3x3_s2"
  type: "Pooling"
  bottom: "inception_3b/output"
  top: "pool3/3x3_s2"
  pooling_param {
    pool: MAX
    kernel_size: 3
    stride: 2
  }
}
layer {
  name: "inception_4a/1x1"
  type: "Convolution"
  bottom: "pool3/3x3_s2"
  top: "inception_4a/1x1"
  param {
    lr_mult: 1
    decay_mult: 1
  }
  param {
    lr_mult: 2
    decay_mult: 0
  }
  convolution_param {
    num_output: 192
    kernel_size: 1
    weight_filler {
      type: "xavier"
      std: 0.03
    }
    bias_filler {
      type: "constant"
      value: 0.2
    }
  }
}
layer {
  name: "inception_4a/relu_1x1"
  type: "ReLU"
  bottom: "inception_4a/1x1"
  top: "inception_4a/1x1"
}
layer {
  name: "inception_4a/3x3_reduce"
  type: "Convolution"
  bottom: "pool3/3x3_s2"
  top: "inception_4a/3x3_reduce"
  param {
    lr_mult: 1
    decay_mult: 1
  }
  param {
    lr_mult: 2
    decay_mult: 0
  }
  convolution_param {
    num_output: 96
    kernel_size: 1
    weight_filler {
      type: "xavier"
      std: 0.09
    }
    bias_filler {
      type: "constant"
      value: 0.2
    }
  }
}
layer {
  name: "inception_4a/relu_3x3_reduce"
  type: "ReLU"
  bottom: "inception_4a/3x3_reduce"
  top: "inception_4a/3x3_reduce"
}
layer {
  name: "inception_4a/3x3"
  type: "Convolution"
  bottom: "inception_4a/3x3_reduce"
  top: "inception_4a/3x3"
  param {
    lr_mult: 1
    decay_mult: 1
  }
  param {
    lr_mult: 2
    decay_mult: 0
  }
  convolution_param {
    num_output: 208
    pad: 1
    kernel_size: 3
    weight_filler {
      type: "xavier"
      std: 0.03
    }
    bias_filler {
      type: "constant"
      value: 0.2
    }
  }
}
layer {
  name: "inception_4a/relu_3x3"
  type: "ReLU"
  bottom: "inception_4a/3x3"
  top: "inception_4a/3x3"
}
layer {
  name: "inception_4a/5x5_reduce"
  type: "Convolution"
  bottom: "pool3/3x3_s2"
  top: "inception_4a/5x5_reduce"
  param {
    lr_mult: 1
    decay_mult: 1
  }
  param {
    lr_mult: 2
    decay_mult: 0
  }
  convolution_param {
    num_output: 16
    kernel_size: 1
    weight_filler {
      type: "xavier"
      std: 0.2
    }
    bias_filler {
      type: "constant"
      value: 0.2
    }
  }
}
layer {
  name: "inception_4a/relu_5x5_reduce"
  type: "ReLU"
  bottom: "inception_4a/5x5_reduce"
  top: "inception_4a/5x5_reduce"
}
layer {
  name: "inception_4a/5x5"
  type: "Convolution"
  bottom: "inception_4a/5x5_reduce"
  top: "inception_4a/5x5"
  param {
    lr_mult: 1
    decay_mult: 1
  }
  param {
    lr_mult: 2
    decay_mult: 0
  }
  convolution_param {
    num_output: 48
    pad: 2
    kernel_size: 5
    weight_filler {
      type: "xavier"
      std: 0.03
    }
    bias_filler {
      type: "constant"
      value: 0.2
    }
  }
}
layer {
  name: "inception_4a/relu_5x5"
  type: "ReLU"
  bottom: "inception_4a/5x5"
  top: "inception_4a/5x5"
}
layer {
  name: "inception_4a/pool"
  type: "Pooling"
  bottom: "pool3/3x3_s2"
  top: "inception_4a/pool"
  pooling_param {
    pool: MAX
    kernel_size: 3
    stride: 1
    pad: 1
  }
}
layer {
  name: "inception_4a/pool_proj"
  type: "Convolution"
  bottom: "inception_4a/pool"
  top: "inception_4a/pool_proj"
  param {
    lr_mult: 1
    decay_mult: 1
  }
  param {
    lr_mult: 2
    decay_mult: 0
  }
  convolution_param {
    num_output: 64
    kernel_size: 1
    weight_filler {
      type: "xavier"
      std: 0.1
    }
    bias_filler {
      type: "constant"
      value: 0.2
    }
  }
}
layer {
  name: "inception_4a/relu_pool_proj"
  type: "ReLU"
  bottom: "inception_4a/pool_proj"
  top: "inception_4a/pool_proj"
}
layer {
  name: "inception_4a/output"
  type: "Concat"
  bottom: "inception_4a/1x1"
  bottom: "inception_4a/3x3"
  bottom: "inception_4a/5x5"
  bottom: "inception_4a/pool_proj"
  top: "inception_4a/output"
}
layer {
  name: "inception_4b/1x1"
  type: "Convolution"
  bottom: "inception_4a/output"
  top: "inception_4b/1x1"
  param {
    lr_mult: 1
    decay_mult: 1
  }
  param {
    lr_mult: 2
    decay_mult: 0
  }
  convolution_param {
    num_output: 160
    kernel_size: 1
    weight_filler {
      type: "xavier"
      std: 0.03
    }
    bias_filler {
      type: "constant"
      value: 0.2
    }
  }
}
layer {
  name: "inception_4b/relu_1x1"
  type: "ReLU"
  bottom: "inception_4b/1x1"
  top: "inception_4b/1x1"
}
layer {
  name: "inception_4b/3x3_reduce"
  type: "Convolution"
  bottom: "inception_4a/output"
  top: "inception_4b/3x3_reduce"
  param {
    lr_mult: 1
    decay_mult: 1
  }
  param {
    lr_mult: 2
    decay_mult: 0
  }
  convolution_param {
    num_output: 112
    kernel_size: 1
    weight_filler {
      type: "xavier"
      std: 0.09
    }
    bias_filler {
      type: "constant"
      value: 0.2
    }
  }
}
layer {
  name: "inception_4b/relu_3x3_reduce"
  type: "ReLU"
  bottom: "inception_4b/3x3_reduce"
  top: "inception_4b/3x3_reduce"
}
layer {
  name: "inception_4b/3x3"
  type: "Convolution"
  bottom: "inception_4b/3x3_reduce"
  top: "inception_4b/3x3"
  param {
    lr_mult: 1
    decay_mult: 1
  }
  param {
    lr_mult: 2
    decay_mult: 0
  }
  convolution_param {
    num_output: 224
    pad: 1
    kernel_size: 3
    weight_filler {
      type: "xavier"
      std: 0.03
    }
    bias_filler {
      type: "constant"
      value: 0.2
    }
  }
}
layer {
  name: "inception_4b/relu_3x3"
  type: "ReLU"
  bottom: "inception_4b/3x3"
  top: "inception_4b/3x3"
}
layer {
  name: "inception_4b/5x5_reduce"
  type: "Convolution"
  bottom: "inception_4a/output"
  top: "inception_4b/5x5_reduce"
  param {
    lr_mult: 1
    decay_mult: 1
  }
  param {
    lr_mult: 2
    decay_mult: 0
  }
  convolution_param {
    num_output: 24
    kernel_size: 1
    weight_filler {
      type: "xavier"
      std: 0.2
    }
    bias_filler {
      type: "constant"
      value: 0.2
    }
  }
}
layer {
  name: "inception_4b/relu_5x5_reduce"
  type: "ReLU"
  bottom: "inception_4b/5x5_reduce"
  top: "inception_4b/5x5_reduce"
}
layer {
  name: "inception_4b/5x5"
  type: "Convolution"
  bottom: "inception_4b/5x5_reduce"
  top: "inception_4b/5x5"
  param {
    lr_mult: 1
    decay_mult: 1
  }
  param {
    lr_mult: 2
    decay_mult: 0
  }
  convolution_param {
    num_output: 64
    pad: 2
    kernel_size: 5
    weight_filler {
      type: "xavier"
      std: 0.03
    }
    bias_filler {
      type: "constant"
      value: 0.2
    }
  }
}
layer {
  name: "inception_4b/relu_5x5"
  type: "ReLU"
  bottom: "inception_4b/5x5"
  top: "inception_4b/5x5"
}
layer {
  name: "inception_4b/pool"
  type: "Pooling"
  bottom: "inception_4a/output"
  top: "inception_4b/pool"
  pooling_param {
    pool: MAX
    kernel_size: 3
    stride: 1
    pad: 1
  }
}
layer {
  name: "inception_4b/pool_proj"
  type: "Convolution"
  bottom: "inception_4b/pool"
  top: "inception_4b/pool_proj"
  param {
    lr_mult: 1
    decay_mult: 1
  }
  param {
    lr_mult: 2
    decay_mult: 0
  }
  convolution_param {
    num_output: 64
    kernel_size: 1
    weight_filler {
      type: "xavier"
      std: 0.1
    }
    bias_filler {
      type: "constant"
      value: 0.2
    }
  }
}
layer {
  name: "inception_4b/relu_pool_proj"
  type: "ReLU"
  bottom: "inception_4b/pool_proj"
  top: "inception_4b/pool_proj"
}
layer {
  name: "inception_4b/output"
  type: "Concat"
  bottom: "inception_4b/1x1"
  bottom: "inception_4b/3x3"
  bottom: "inception_4b/5x5"
  bottom: "inception_4b/pool_proj"
  top: "inception_4b/output"
}
layer {
  name: "inception_4c/1x1"
  type: "Convolution"
  bottom: "inception_4b/output"
  top: "inception_4c/1x1"
  param {
    lr_mult: 1
    decay_mult: 1
  }
  param {
    lr_mult: 2
    decay_mult: 0
  }
  convolution_param {
    num_output: 128
    kernel_size: 1
    weight_filler {
      type: "xavier"
      std: 0.03
    }
    bias_filler {
      type: "constant"
      value: 0.2
    }
  }
}
layer {
  name: "inception_4c/relu_1x1"
  type: "ReLU"
  bottom: "inception_4c/1x1"
  top: "inception_4c/1x1"
}
layer {
  name: "inception_4c/3x3_reduce"
  type: "Convolution"
  bottom: "inception_4b/output"
  top: "inception_4c/3x3_reduce"
  param {
    lr_mult: 1
    decay_mult: 1
  }
  param {
    lr_mult: 2
    decay_mult: 0
  }
  convolution_param {
    num_output: 128
    kernel_size: 1
    weight_filler {
      type: "xavier"
      std: 0.09
    }
    bias_filler {
      type: "constant"
      value: 0.2
    }
  }
}
layer {
  name: "inception_4c/relu_3x3_reduce"
  type: "ReLU"
  bottom: "inception_4c/3x3_reduce"
  top: "inception_4c/3x3_reduce"
}
layer {
  name: "inception_4c/3x3"
  type: "Convolution"
  bottom: "inception_4c/3x3_reduce"
  top: "inception_4c/3x3"
  param {
    lr_mult: 1
    decay_mult: 1
  }
  param {
    lr_mult: 2
    decay_mult: 0
  }
  convolution_param {
    num_output: 256
    pad: 1
    kernel_size: 3
    weight_filler {
      type: "xavier"
      std: 0.03
    }
    bias_filler {
      type: "constant"
      value: 0.2
    }
  }
}
layer {
  name: "inception_4c/relu_3x3"
  type: "ReLU"
  bottom: "inception_4c/3x3"
  top: "inception_4c/3x3"
}
layer {
  name: "inception_4c/5x5_reduce"
  type: "Convolution"
  bottom: "inception_4b/output"
  top: "inception_4c/5x5_reduce"
  param {
    lr_mult: 1
    decay_mult: 1
  }
  param {
    lr_mult: 2
    decay_mult: 0
  }
  convolution_param {
    num_output: 24
    kernel_size: 1
    weight_filler {
      type: "xavier"
      std: 0.2
    }
    bias_filler {
      type: "constant"
      value: 0.2
    }
  }
}
layer {
  name: "inception_4c/relu_5x5_reduce"
  type: "ReLU"
  bottom: "inception_4c/5x5_reduce"
  top: "inception_4c/5x5_reduce"
}
layer {
  name: "inception_4c/5x5"
  type: "Convolution"
  bottom: "inception_4c/5x5_reduce"
  top: "inception_4c/5x5"
  param {
    lr_mult: 1
    decay_mult: 1
  }
  param {
    lr_mult: 2
    decay_mult: 0
  }
  convolution_param {
    num_output: 64
    pad: 2
    kernel_size: 5
    weight_filler {
      type: "xavier"
      std: 0.03
    }
    bias_filler {
      type: "constant"
      value: 0.2
    }
  }
}
layer {
  name: "inception_4c/relu_5x5"
  type: "ReLU"
  bottom: "inception_4c/5x5"
  top: "inception_4c/5x5"
}
layer {
  name: "inception_4c/pool"
  type: "Pooling"
  bottom: "inception_4b/output"
  top: "inception_4c/pool"
  pooling_param {
    pool: MAX
    kernel_size: 3
    stride: 1
    pad: 1
  }
}
layer {
  name: "inception_4c/pool_proj"
  type: "Convolution"
  bottom: "inception_4c/pool"
  top: "inception_4c/pool_proj"
  param {
    lr_mult: 1
    decay_mult: 1
  }
  param {
    lr_mult: 2
    decay_mult: 0
  }
  convolution_param {
    num_output: 64
    kernel_size: 1
    weight_filler {
      type: "xavier"
      std: 0.1
    }
    bias_filler {
      type: "constant"
      value: 0.2
    }
  }
}
layer {
  name: "inception_4c/relu_pool_proj"
  type: "ReLU"
  bottom: "inception_4c/pool_proj"
  top: "inception_4c/pool_proj"
}
layer {
  name: "inception_4c/output"
  type: "Concat"
  bottom: "inception_4c/1x1"
  bottom: "inception_4c/3x3"
  bottom: "inception_4c/5x5"
  bottom: "inception_4c/pool_proj"
  top: "inception_4c/output"
}
layer {
  name: "inception_4d/1x1"
  type: "Convolution"
  bottom: "inception_4c/output"
  top: "inception_4d/1x1"
  param {
    lr_mult: 1
    decay_mult: 1
  }
  param {
    lr_mult: 2
    decay_mult: 0
  }
  convolution_param {
    num_output: 112
    kernel_size: 1
    weight_filler {
      type: "xavier"
      std: 0.03
    }
    bias_filler {
      type: "constant"
      value: 0.2
    }
  }
}
layer {
  name: "inception_4d/relu_1x1"
  type: "ReLU"
  bottom: "inception_4d/1x1"
  top: "inception_4d/1x1"
}
layer {
  name: "inception_4d/3x3_reduce"
  type: "Convolution"
  bottom: "inception_4c/output"
  top: "inception_4d/3x3_reduce"
  param {
    lr_mult: 1
    decay_mult: 1
  }
  param {
    lr_mult: 2
    decay_mult: 0
  }
  convolution_param {
    num_output: 144
    kernel_size: 1
    weight_filler {
      type: "xavier"
      std: 0.09
    }
    bias_filler {
      type: "constant"
      value: 0.2
    }
  }
}
layer {
  name: "inception_4d/relu_3x3_reduce"
  type: "ReLU"
  bottom: "inception_4d/3x3_reduce"
  top: "inception_4d/3x3_reduce"
}
layer {
  name: "inception_4d/3x3"
  type: "Convolution"
  bottom: "inception_4d/3x3_reduce"
  top: "inception_4d/3x3"
  param {
    lr_mult: 1
    decay_mult: 1
  }
  param {
    lr_mult: 2
    decay_mult: 0
  }
  convolution_param {
    num_output: 288
    pad: 1
    kernel_size: 3
    weight_filler {
      type: "xavier"
      std: 0.03
    }
    bias_filler {
      type: "constant"
      value: 0.2
    }
  }
}
layer {
  name: "inception_4d/relu_3x3"
  type: "ReLU"
  bottom: "inception_4d/3x3"
  top: "inception_4d/3x3"
}
layer {
  name: "inception_4d/5x5_reduce"
  type: "Convolution"
  bottom: "inception_4c/output"
  top: "inception_4d/5x5_reduce"
  param {
    lr_mult: 1
    decay_mult: 1
  }
  param {
    lr_mult: 2
    decay_mult: 0
  }
  convolution_param {
    num_output: 32
    kernel_size: 1
    weight_filler {
      type: "xavier"
      std: 0.2
    }
    bias_filler {
      type: "constant"
      value: 0.2
    }
  }
}
layer {
  name: "inception_4d/relu_5x5_reduce"
  type: "ReLU"
  bottom: "inception_4d/5x5_reduce"
  top: "inception_4d/5x5_reduce"
}
layer {
  name: "inception_4d/5x5"
  type: "Convolution"
  bottom: "inception_4d/5x5_reduce"
  top: "inception_4d/5x5"
  param {
    lr_mult: 1
    decay_mult: 1
  }
  param {
    lr_mult: 2
    decay_mult: 0
  }
  convolution_param {
    num_output: 64
    pad: 2
    kernel_size: 5
    weight_filler {
      type: "xavier"
      std: 0.03
    }
    bias_filler {
      type: "constant"
      value: 0.2
    }
  }
}
layer {
  name: "inception_4d/relu_5x5"
  type: "ReLU"
  bottom: "inception_4d/5x5"
  top: "inception_4d/5x5"
}
layer {
  name: "inception_4d/pool"
  type: "Pooling"
  bottom: "inception_4c/output"
  top: "inception_4d/pool"
  pooling_param {
    pool: MAX
    kernel_size: 3
    stride: 1
    pad: 1
  }
}
layer {
  name: "inception_4d/pool_proj"
  type: "Convolution"
  bottom: "inception_4d/pool"
  top: "inception_4d/pool_proj"
  param {
    lr_mult: 1
    decay_mult: 1
  }
  param {
    lr_mult: 2
    decay_mult: 0
  }
  convolution_param {
    num_output: 64
    kernel_size: 1
    weight_filler {
      type: "xavier"
      std: 0.1
    }
    bias_filler {
      type: "constant"
      value: 0.2
    }
  }
}
layer {
  name: "inception_4d/relu_pool_proj"
  type: "ReLU"
  bottom: "inception_4d/pool_proj"
  top: "inception_4d/pool_proj"
}
layer {
  name: "inception_4d/output"
  type: "Concat"
  bottom: "inception_4d/1x1"
  bottom: "inception_4d/3x3"
  bottom: "inception_4d/5x5"
  bottom: "inception_4d/pool_proj"
  top: "inception_4d/output"
}
layer {
  name: "inception_4e/1x1"
  type: "Convolution"
  bottom: "inception_4d/output"
  top: "inception_4e/1x1"
  param {
    lr_mult: 1
    decay_mult: 1
  }
  param {
    lr_mult: 2
    decay_mult: 0
  }
  convolution_param {
    num_output: 256
    kernel_size: 1
    weight_filler {
      type: "xavier"
      std: 0.03
    }
    bias_filler {
      type: "constant"
      value: 0.2
    }
  }
}
layer {
  name: "inception_4e/relu_1x1"
  type: "ReLU"
  bottom: "inception_4e/1x1"
  top: "inception_4e/1x1"
}
layer {
  name: "inception_4e/3x3_reduce"
  type: "Convolution"
  bottom: "inception_4d/output"
  top: "inception_4e/3x3_reduce"
  param {
    lr_mult: 1
    decay_mult: 1
  }
  param {
    lr_mult: 2
    decay_mult: 0
  }
  convolution_param {
    num_output: 160
    kernel_size: 1
    weight_filler {
      type: "xavier"
      std: 0.09
    }
    bias_filler {
      type: "constant"
      value: 0.2
    }
  }
}
layer {
  name: "inception_4e/relu_3x3_reduce"
  type: "ReLU"
  bottom: "inception_4e/3x3_reduce"
  top: "inception_4e/3x3_reduce"
}
layer {
  name: "inception_4e/3x3"
  type: "Convolution"
  bottom: "inception_4e/3x3_reduce"
  top: "inception_4e/3x3"
  param {
    lr_mult: 1
    decay_mult: 1
  }
  param {
    lr_mult: 2
    decay_mult: 0
  }
  convolution_param {
    num_output: 320
    pad: 1
    kernel_size: 3
    weight_filler {
      type: "xavier"
      std: 0.03
    }
    bias_filler {
      type: "constant"
      value: 0.2
    }
  }
}
layer {
  name: "inception_4e/relu_3x3"
  type: "ReLU"
  bottom: "inception_4e/3x3"
  top: "inception_4e/3x3"
}
layer {
  name: "inception_4e/5x5_reduce"
  type: "Convolution"
  bottom: "inception_4d/output"
  top: "inception_4e/5x5_reduce"
  param {
    lr_mult: 1
    decay_mult: 1
  }
  param {
    lr_mult: 2
    decay_mult: 0
  }
  convolution_param {
    num_output: 32
    kernel_size: 1
    weight_filler {
      type: "xavier"
      std: 0.2
    }
    bias_filler {
      type: "constant"
      value: 0.2
    }
  }
}
layer {
  name: "inception_4e/relu_5x5_reduce"
  type: "ReLU"
  bottom: "inception_4e/5x5_reduce"
  top: "inception_4e/5x5_reduce"
}
layer {
  name: "inception_4e/5x5"
  type: "Convolution"
  bottom: "inception_4e/5x5_reduce"
  top: "inception_4e/5x5"
  param {
    lr_mult: 1
    decay_mult: 1
  }
  param {
    lr_mult: 2
    decay_mult: 0
  }
  convolution_param {
    num_output: 128
    pad: 2
    kernel_size: 5
    weight_filler {
      type: "xavier"
      std: 0.03
    }
    bias_filler {
      type: "constant"
      value: 0.2
    }
  }
}
layer {
  name: "inception_4e/relu_5x5"
  type: "ReLU"
  bottom: "inception_4e/5x5"
  top: "inception_4e/5x5"
}
layer {
  name: "inception_4e/pool"
  type: "Pooling"
  bottom: "inception_4d/output"
  top: "inception_4e/pool"
  pooling_param {
    pool: MAX
    kernel_size: 3
    stride: 1
    pad: 1
  }
}
layer {
  name: "inception_4e/pool_proj"
  type: "Convolution"
  bottom: "inception_4e/pool"
  top: "inception_4e/pool_proj"
  param {
    lr_mult: 1
    decay_mult: 1
  }
  param {
    lr_mult: 2
    decay_mult: 0
  }
  convolution_param {
    num_output: 128
    kernel_size: 1
    weight_filler {
      type: "xavier"
      std: 0.1
    }
    bias_filler {
      type: "constant"
      value: 0.2
    }
  }
}
layer {
  name: "inception_4e/relu_pool_proj"
  type: "ReLU"
  bottom: "inception_4e/pool_proj"
  top: "inception_4e/pool_proj"
}
layer {
  name: "inception_4e/output"
  type: "Concat"
  bottom: "inception_4e/1x1"
  bottom: "inception_4e/3x3"
  bottom: "inception_4e/5x5"
  bottom: "inception_4e/pool_proj"
  top: "inception_4e/output"
}
layer {
  name: "CAM_conv"
  type: "Convolution"
  bottom: "inception_4e/output"
  top: "CAM_conv"
  param {
    lr_mult: 1
    decay_mult: 1
  }
  param {
    lr_mult: 2
    decay_mult: 0
  }
  convolution_param {
    num_output: 1024
    pad: 1
    kernel_size: 3
    group: 2
    weight_filler {
      type: "gaussian"
      std: 0.01
    }
    bias_filler {
      type: "constant"
      value: 1
    }
  }
}
layer {
  name: "CAM_relu"
  type: "ReLU"
  bottom: "CAM_conv"
  top: "CAM_conv"
}
layer {
  name: "CAM_pool"
  type: "Pooling"
  bottom: "CAM_conv"
  top: "CAM_pool"
  pooling_param {
    pool: AVE
    kernel_size: 14
    stride: 14
  }
}
layer {
  name: "myCAM_fc"
  type: "InnerProduct"
  bottom: "CAM_pool"
  top: "myCAM_fc"
  param {
    lr_mult: 1
    decay_mult: 1
  }
  param {
    lr_mult: 2
    decay_mult: 0
  }
  inner_product_param {
    num_output: 5
    weight_filler {
      type: "xavier"
    }
    bias_filler {
      type: "constant"
      value: 0
    }
  }
}
layer {
  name: "prob"
  type: "Softmax"
  bottom: "myCAM_fc"
  top: "prob"
}
I0527 15:12:12.360988  6106 net.cpp:437] Input 0 -> data
I0527 15:12:12.361021  6106 layer_factory.hpp:74] Creating layer conv1/7x7_s2
I0527 15:12:12.361032  6106 net.cpp:99] Creating Layer conv1/7x7_s2
I0527 15:12:12.361035  6106 net.cpp:479] conv1/7x7_s2 <- data
I0527 15:12:12.361043  6106 net.cpp:435] conv1/7x7_s2 -> conv1/7x7_s2
I0527 15:12:12.361052  6106 net.cpp:163] Setting up conv1/7x7_s2
WARNING: Logging before InitGoogleLogging() is written to STDERR
I0527 15:12:12.420922  6107 net.cpp:46] Initializing net from parameters: 
name: "GoogleNet"
input: "data"
input_dim: 10
input_dim: 3
input_dim: 224
input_dim: 224
force_backward: true
state {
  phase: TEST
}
layer {
  name: "conv1/7x7_s2"
  type: "Convolution"
  bottom: "data"
  top: "conv1/7x7_s2"
  param {
    lr_mult: 1
    decay_mult: 1
  }
  param {
    lr_mult: 2
    decay_mult: 0
  }
  convolution_param {
    num_output: 64
    pad: 3
    kernel_size: 7
    stride: 2
    weight_filler {
      type: "xavier"
      std: 0.1
    }
    bias_filler {
      type: "constant"
      value: 0.2
    }
  }
}
layer {
  name: "conv1/relu_7x7"
  type: "ReLU"
  bottom: "conv1/7x7_s2"
  top: "conv1/7x7_s2"
}
layer {
  name: "pool1/3x3_s2"
  type: "Pooling"
  bottom: "conv1/7x7_s2"
  top: "pool1/3x3_s2"
  pooling_param {
    pool: MAX
    kernel_size: 3
    stride: 2
  }
}
layer {
  name: "pool1/norm1"
  type: "LRN"
  bottom: "pool1/3x3_s2"
  top: "pool1/norm1"
  lrn_param {
    local_size: 5
    alpha: 0.0001
    beta: 0.75
  }
}
layer {
  name: "conv2/3x3_reduce"
  type: "Convolution"
  bottom: "pool1/norm1"
  top: "conv2/3x3_reduce"
  param {
    lr_mult: 1
    decay_mult: 1
  }
  param {
    lr_mult: 2
    decay_mult: 0
  }
  convolution_param {
    num_output: 64
    kernel_size: 1
    weight_filler {
      type: "xavier"
      std: 0.1
    }
    bias_filler {
      type: "constant"
      value: 0.2
    }
  }
}
layer {
  name: "conv2/relu_3x3_reduce"
  type: "ReLU"
  bottom: "conv2/3x3_reduce"
  top: "conv2/3x3_reduce"
}
layer {
  name: "conv2/3x3"
  type: "Convolution"
  bottom: "conv2/3x3_reduce"
  top: "conv2/3x3"
  param {
    lr_mult: 1
    decay_mult: 1
  }
  param {
    lr_mult: 2
    decay_mult: 0
  }
  convolution_param {
    num_output: 192
    pad: 1
    kernel_size: 3
    weight_filler {
      type: "xavier"
      std: 0.03
    }
    bias_filler {
      type: "constant"
      value: 0.2
    }
  }
}
layer {
  name: "conv2/relu_3x3"
  type: "ReLU"
  bottom: "conv2/3x3"
  top: "conv2/3x3"
}
layer {
  name: "conv2/norm2"
  type: "LRN"
  bottom: "conv2/3x3"
  top: "conv2/norm2"
  lrn_param {
    local_size: 5
    alpha: 0.0001
    beta: 0.75
  }
}
layer {
  name: "pool2/3x3_s2"
  type: "Pooling"
  bottom: "conv2/norm2"
  top: "pool2/3x3_s2"
  pooling_param {
    pool: MAX
    kernel_size: 3
    stride: 2
  }
}
layer {
  name: "inception_3a/1x1"
  type: "Convolution"
  bottom: "pool2/3x3_s2"
  top: "inception_3a/1x1"
  param {
    lr_mult: 1
    decay_mult: 1
  }
  param {
    lr_mult: 2
    decay_mult: 0
  }
  convolution_param {
    num_output: 64
    kernel_size: 1
    weight_filler {
      type: "xavier"
      std: 0.03
    }
    bias_filler {
      type: "constant"
      value: 0.2
    }
  }
}
layer {
  name: "inception_3a/relu_1x1"
  type: "ReLU"
  bottom: "inception_3a/1x1"
  top: "inception_3a/1x1"
}
layer {
  name: "inception_3a/3x3_reduce"
  type: "Convolution"
  bottom: "pool2/3x3_s2"
  top: "inception_3a/3x3_reduce"
  param {
    lr_mult: 1
    decay_mult: 1
  }
  param {
    lr_mult: 2
    decay_mult: 0
  }
  convolution_param {
    num_output: 96
    kernel_size: 1
    weight_filler {
      type: "xavier"
      std: 0.09
    }
    bias_filler {
      type: "constant"
      value: 0.2
    }
  }
}
layer {
  name: "inception_3a/relu_3x3_reduce"
  type: "ReLU"
  bottom: "inception_3a/3x3_reduce"
  top: "inception_3a/3x3_reduce"
}
layer {
  name: "inception_3a/3x3"
  type: "Convolution"
  bottom: "inception_3a/3x3_reduce"
  top: "inception_3a/3x3"
  param {
    lr_mult: 1
    decay_mult: 1
  }
  param {
    lr_mult: 2
    decay_mult: 0
  }
  convolution_param {
    num_output: 128
    pad: 1
    kernel_size: 3
    weight_filler {
      type: "xavier"
      std: 0.03
    }
    bias_filler {
      type: "constant"
      value: 0.2
    }
  }
}
layer {
  name: "inception_3a/relu_3x3"
  type: "ReLU"
  bottom: "inception_3a/3x3"
  top: "inception_3a/3x3"
}
layer {
  name: "inception_3a/5x5_reduce"
  type: "Convolution"
  bottom: "pool2/3x3_s2"
  top: "inception_3a/5x5_reduce"
  param {
    lr_mult: 1
    decay_mult: 1
  }
  param {
    lr_mult: 2
    decay_mult: 0
  }
  convolution_param {
    num_output: 16
    kernel_size: 1
    weight_filler {
      type: "xavier"
      std: 0.2
    }
    bias_filler {
      type: "constant"
      value: 0.2
    }
  }
}
layer {
  name: "inception_3a/relu_5x5_reduce"
  type: "ReLU"
  bottom: "inception_3a/5x5_reduce"
  top: "inception_3a/5x5_reduce"
}
layer {
  name: "inception_3a/5x5"
  type: "Convolution"
  bottom: "inception_3a/5x5_reduce"
  top: "inception_3a/5x5"
  param {
    lr_mult: 1
    decay_mult: 1
  }
  param {
    lr_mult: 2
    decay_mult: 0
  }
  convolution_param {
    num_output: 32
    pad: 2
    kernel_size: 5
    weight_filler {
      type: "xavier"
      std: 0.03
    }
    bias_filler {
      type: "constant"
      value: 0.2
    }
  }
}
layer {
  name: "inception_3a/relu_5x5"
  type: "ReLU"
  bottom: "inception_3a/5x5"
  top: "inception_3a/5x5"
}
layer {
  name: "inception_3a/pool"
  type: "Pooling"
  bottom: "pool2/3x3_s2"
  top: "inception_3a/pool"
  pooling_param {
    pool: MAX
    kernel_size: 3
    stride: 1
    pad: 1
  }
}
layer {
  name: "inception_3a/pool_proj"
  type: "Convolution"
  bottom: "inception_3a/pool"
  top: "inception_3a/pool_proj"
  param {
    lr_mult: 1
    decay_mult: 1
  }
  param {
    lr_mult: 2
    decay_mult: 0
  }
  convolution_param {
    num_output: 32
    kernel_size: 1
    weight_filler {
      type: "xavier"
      std: 0.1
    }
    bias_filler {
      type: "constant"
      value: 0.2
    }
  }
}
layer {
  name: "inception_3a/relu_pool_proj"
  type: "ReLU"
  bottom: "inception_3a/pool_proj"
  top: "inception_3a/pool_proj"
}
layer {
  name: "inception_3a/output"
  type: "Concat"
  bottom: "inception_3a/1x1"
  bottom: "inception_3a/3x3"
  bottom: "inception_3a/5x5"
  bottom: "inception_3a/pool_proj"
  top: "inception_3a/output"
}
layer {
  name: "inception_3b/1x1"
  type: "Convolution"
  bottom: "inception_3a/output"
  top: "inception_3b/1x1"
  param {
    lr_mult: 1
    decay_mult: 1
  }
  param {
    lr_mult: 2
    decay_mult: 0
  }
  convolution_param {
    num_output: 128
    kernel_size: 1
    weight_filler {
      type: "xavier"
      std: 0.03
    }
    bias_filler {
      type: "constant"
      value: 0.2
    }
  }
}
layer {
  name: "inception_3b/relu_1x1"
  type: "ReLU"
  bottom: "inception_3b/1x1"
  top: "inception_3b/1x1"
}
layer {
  name: "inception_3b/3x3_reduce"
  type: "Convolution"
  bottom: "inception_3a/output"
  top: "inception_3b/3x3_reduce"
  param {
    lr_mult: 1
    decay_mult: 1
  }
  param {
    lr_mult: 2
    decay_mult: 0
  }
  convolution_param {
    num_output: 128
    kernel_size: 1
    weight_filler {
      type: "xavier"
      std: 0.09
    }
    bias_filler {
      type: "constant"
      value: 0.2
    }
  }
}
layer {
  name: "inception_3b/relu_3x3_reduce"
  type: "ReLU"
  bottom: "inception_3b/3x3_reduce"
  top: "inception_3b/3x3_reduce"
}
layer {
  name: "inception_3b/3x3"
  type: "Convolution"
  bottom: "inception_3b/3x3_reduce"
  top: "inception_3b/3x3"
  param {
    lr_mult: 1
    decay_mult: 1
  }
  param {
    lr_mult: 2
    decay_mult: 0
  }
  convolution_param {
    num_output: 192
    pad: 1
    kernel_size: 3
    weight_filler {
      type: "xavier"
      std: 0.03
    }
    bias_filler {
      type: "constant"
      value: 0.2
    }
  }
}
layer {
  name: "inception_3b/relu_3x3"
  type: "ReLU"
  bottom: "inception_3b/3x3"
  top: "inception_3b/3x3"
}
layer {
  name: "inception_3b/5x5_reduce"
  type: "Convolution"
  bottom: "inception_3a/output"
  top: "inception_3b/5x5_reduce"
  param {
    lr_mult: 1
    decay_mult: 1
  }
  param {
    lr_mult: 2
    decay_mult: 0
  }
  convolution_param {
    num_output: 32
    kernel_size: 1
    weight_filler {
      type: "xavier"
      std: 0.2
    }
    bias_filler {
      type: "constant"
      value: 0.2
    }
  }
}
layer {
  name: "inception_3b/relu_5x5_reduce"
  type: "ReLU"
  bottom: "inception_3b/5x5_reduce"
  top: "inception_3b/5x5_reduce"
}
layer {
  name: "inception_3b/5x5"
  type: "Convolution"
  bottom: "inception_3b/5x5_reduce"
  top: "inception_3b/5x5"
  param {
    lr_mult: 1
    decay_mult: 1
  }
  param {
    lr_mult: 2
    decay_mult: 0
  }
  convolution_param {
    num_output: 96
    pad: 2
    kernel_size: 5
    weight_filler {
      type: "xavier"
      std: 0.03
    }
    bias_filler {
      type: "constant"
      value: 0.2
    }
  }
}
layer {
  name: "inception_3b/relu_5x5"
  type: "ReLU"
  bottom: "inception_3b/5x5"
  top: "inception_3b/5x5"
}
layer {
  name: "inception_3b/pool"
  type: "Pooling"
  bottom: "inception_3a/output"
  top: "inception_3b/pool"
  pooling_param {
    pool: MAX
    kernel_size: 3
    stride: 1
    pad: 1
  }
}
layer {
  name: "inception_3b/pool_proj"
  type: "Convolution"
  bottom: "inception_3b/pool"
  top: "inception_3b/pool_proj"
  param {
    lr_mult: 1
    decay_mult: 1
  }
  param {
    lr_mult: 2
    decay_mult: 0
  }
  convolution_param {
    num_output: 64
    kernel_size: 1
    weight_filler {
      type: "xavier"
      std: 0.1
    }
    bias_filler {
      type: "constant"
      value: 0.2
    }
  }
}
layer {
  name: "inception_3b/relu_pool_proj"
  type: "ReLU"
  bottom: "inception_3b/pool_proj"
  top: "inception_3b/pool_proj"
}
layer {
  name: "inception_3b/output"
  type: "Concat"
  bottom: "inception_3b/1x1"
  bottom: "inception_3b/3x3"
  bottom: "inception_3b/5x5"
  bottom: "inception_3b/pool_proj"
  top: "inception_3b/output"
}
layer {
  name: "pool3/3x3_s2"
  type: "Pooling"
  bottom: "inception_3b/output"
  top: "pool3/3x3_s2"
  pooling_param {
    pool: MAX
    kernel_size: 3
    stride: 2
  }
}
layer {
  name: "inception_4a/1x1"
  type: "Convolution"
  bottom: "pool3/3x3_s2"
  top: "inception_4a/1x1"
  param {
    lr_mult: 1
    decay_mult: 1
  }
  param {
    lr_mult: 2
    decay_mult: 0
  }
  convolution_param {
    num_output: 192
    kernel_size: 1
    weight_filler {
      type: "xavier"
      std: 0.03
    }
    bias_filler {
      type: "constant"
      value: 0.2
    }
  }
}
layer {
  name: "inception_4a/relu_1x1"
  type: "ReLU"
  bottom: "inception_4a/1x1"
  top: "inception_4a/1x1"
}
layer {
  name: "inception_4a/3x3_reduce"
  type: "Convolution"
  bottom: "pool3/3x3_s2"
  top: "inception_4a/3x3_reduce"
  param {
    lr_mult: 1
    decay_mult: 1
  }
  param {
    lr_mult: 2
    decay_mult: 0
  }
  convolution_param {
    num_output: 96
    kernel_size: 1
    weight_filler {
      type: "xavier"
      std: 0.09
    }
    bias_filler {
      type: "constant"
      value: 0.2
    }
  }
}
layer {
  name: "inception_4a/relu_3x3_reduce"
  type: "ReLU"
  bottom: "inception_4a/3x3_reduce"
  top: "inception_4a/3x3_reduce"
}
layer {
  name: "inception_4a/3x3"
  type: "Convolution"
  bottom: "inception_4a/3x3_reduce"
  top: "inception_4a/3x3"
  param {
    lr_mult: 1
    decay_mult: 1
  }
  param {
    lr_mult: 2
    decay_mult: 0
  }
  convolution_param {
    num_output: 208
    pad: 1
    kernel_size: 3
    weight_filler {
      type: "xavier"
      std: 0.03
    }
    bias_filler {
      type: "constant"
      value: 0.2
    }
  }
}
layer {
  name: "inception_4a/relu_3x3"
  type: "ReLU"
  bottom: "inception_4a/3x3"
  top: "inception_4a/3x3"
}
layer {
  name: "inception_4a/5x5_reduce"
  type: "Convolution"
  bottom: "pool3/3x3_s2"
  top: "inception_4a/5x5_reduce"
  param {
    lr_mult: 1
    decay_mult: 1
  }
  param {
    lr_mult: 2
    decay_mult: 0
  }
  convolution_param {
    num_output: 16
    kernel_size: 1
    weight_filler {
      type: "xavier"
      std: 0.2
    }
    bias_filler {
      type: "constant"
      value: 0.2
    }
  }
}
layer {
  name: "inception_4a/relu_5x5_reduce"
  type: "ReLU"
  bottom: "inception_4a/5x5_reduce"
  top: "inception_4a/5x5_reduce"
}
layer {
  name: "inception_4a/5x5"
  type: "Convolution"
  bottom: "inception_4a/5x5_reduce"
  top: "inception_4a/5x5"
  param {
    lr_mult: 1
    decay_mult: 1
  }
  param {
    lr_mult: 2
    decay_mult: 0
  }
  convolution_param {
    num_output: 48
    pad: 2
    kernel_size: 5
    weight_filler {
      type: "xavier"
      std: 0.03
    }
    bias_filler {
      type: "constant"
      value: 0.2
    }
  }
}
layer {
  name: "inception_4a/relu_5x5"
  type: "ReLU"
  bottom: "inception_4a/5x5"
  top: "inception_4a/5x5"
}
layer {
  name: "inception_4a/pool"
  type: "Pooling"
  bottom: "pool3/3x3_s2"
  top: "inception_4a/pool"
  pooling_param {
    pool: MAX
    kernel_size: 3
    stride: 1
    pad: 1
  }
}
layer {
  name: "inception_4a/pool_proj"
  type: "Convolution"
  bottom: "inception_4a/pool"
  top: "inception_4a/pool_proj"
  param {
    lr_mult: 1
    decay_mult: 1
  }
  param {
    lr_mult: 2
    decay_mult: 0
  }
  convolution_param {
    num_output: 64
    kernel_size: 1
    weight_filler {
      type: "xavier"
      std: 0.1
    }
    bias_filler {
      type: "constant"
      value: 0.2
    }
  }
}
layer {
  name: "inception_4a/relu_pool_proj"
  type: "ReLU"
  bottom: "inception_4a/pool_proj"
  top: "inception_4a/pool_proj"
}
layer {
  name: "inception_4a/output"
  type: "Concat"
  bottom: "inception_4a/1x1"
  bottom: "inception_4a/3x3"
  bottom: "inception_4a/5x5"
  bottom: "inception_4a/pool_proj"
  top: "inception_4a/output"
}
layer {
  name: "inception_4b/1x1"
  type: "Convolution"
  bottom: "inception_4a/output"
  top: "inception_4b/1x1"
  param {
    lr_mult: 1
    decay_mult: 1
  }
  param {
    lr_mult: 2
    decay_mult: 0
  }
  convolution_param {
    num_output: 160
    kernel_size: 1
    weight_filler {
      type: "xavier"
      std: 0.03
    }
    bias_filler {
      type: "constant"
      value: 0.2
    }
  }
}
layer {
  name: "inception_4b/relu_1x1"
  type: "ReLU"
  bottom: "inception_4b/1x1"
  top: "inception_4b/1x1"
}
layer {
  name: "inception_4b/3x3_reduce"
  type: "Convolution"
  bottom: "inception_4a/output"
  top: "inception_4b/3x3_reduce"
  param {
    lr_mult: 1
    decay_mult: 1
  }
  param {
    lr_mult: 2
    decay_mult: 0
  }
  convolution_param {
    num_output: 112
    kernel_size: 1
    weight_filler {
      type: "xavier"
      std: 0.09
    }
    bias_filler {
      type: "constant"
      value: 0.2
    }
  }
}
layer {
  name: "inception_4b/relu_3x3_reduce"
  type: "ReLU"
  bottom: "inception_4b/3x3_reduce"
  top: "inception_4b/3x3_reduce"
}
layer {
  name: "inception_4b/3x3"
  type: "Convolution"
  bottom: "inception_4b/3x3_reduce"
  top: "inception_4b/3x3"
  param {
    lr_mult: 1
    decay_mult: 1
  }
  param {
    lr_mult: 2
    decay_mult: 0
  }
  convolution_param {
    num_output: 224
    pad: 1
    kernel_size: 3
    weight_filler {
      type: "xavier"
      std: 0.03
    }
    bias_filler {
      type: "constant"
      value: 0.2
    }
  }
}
layer {
  name: "inception_4b/relu_3x3"
  type: "ReLU"
  bottom: "inception_4b/3x3"
  top: "inception_4b/3x3"
}
layer {
  name: "inception_4b/5x5_reduce"
  type: "Convolution"
  bottom: "inception_4a/output"
  top: "inception_4b/5x5_reduce"
  param {
    lr_mult: 1
    decay_mult: 1
  }
  param {
    lr_mult: 2
    decay_mult: 0
  }
  convolution_param {
    num_output: 24
    kernel_size: 1
    weight_filler {
      type: "xavier"
      std: 0.2
    }
    bias_filler {
      type: "constant"
      value: 0.2
    }
  }
}
layer {
  name: "inception_4b/relu_5x5_reduce"
  type: "ReLU"
  bottom: "inception_4b/5x5_reduce"
  top: "inception_4b/5x5_reduce"
}
layer {
  name: "inception_4b/5x5"
  type: "Convolution"
  bottom: "inception_4b/5x5_reduce"
  top: "inception_4b/5x5"
  param {
    lr_mult: 1
    decay_mult: 1
  }
  param {
    lr_mult: 2
    decay_mult: 0
  }
  convolution_param {
    num_output: 64
    pad: 2
    kernel_size: 5
    weight_filler {
      type: "xavier"
      std: 0.03
    }
    bias_filler {
      type: "constant"
      value: 0.2
    }
  }
}
layer {
  name: "inception_4b/relu_5x5"
  type: "ReLU"
  bottom: "inception_4b/5x5"
  top: "inception_4b/5x5"
}
layer {
  name: "inception_4b/pool"
  type: "Pooling"
  bottom: "inception_4a/output"
  top: "inception_4b/pool"
  pooling_param {
    pool: MAX
    kernel_size: 3
    stride: 1
    pad: 1
  }
}
layer {
  name: "inception_4b/pool_proj"
  type: "Convolution"
  bottom: "inception_4b/pool"
  top: "inception_4b/pool_proj"
  param {
    lr_mult: 1
    decay_mult: 1
  }
  param {
    lr_mult: 2
    decay_mult: 0
  }
  convolution_param {
    num_output: 64
    kernel_size: 1
    weight_filler {
      type: "xavier"
      std: 0.1
    }
    bias_filler {
      type: "constant"
      value: 0.2
    }
  }
}
layer {
  name: "inception_4b/relu_pool_proj"
  type: "ReLU"
  bottom: "inception_4b/pool_proj"
  top: "inception_4b/pool_proj"
}
layer {
  name: "inception_4b/output"
  type: "Concat"
  bottom: "inception_4b/1x1"
  bottom: "inception_4b/3x3"
  bottom: "inception_4b/5x5"
  bottom: "inception_4b/pool_proj"
  top: "inception_4b/output"
}
layer {
  name: "inception_4c/1x1"
  type: "Convolution"
  bottom: "inception_4b/output"
  top: "inception_4c/1x1"
  param {
    lr_mult: 1
    decay_mult: 1
  }
  param {
    lr_mult: 2
    decay_mult: 0
  }
  convolution_param {
    num_output: 128
    kernel_size: 1
    weight_filler {
      type: "xavier"
      std: 0.03
    }
    bias_filler {
      type: "constant"
      value: 0.2
    }
  }
}
layer {
  name: "inception_4c/relu_1x1"
  type: "ReLU"
  bottom: "inception_4c/1x1"
  top: "inception_4c/1x1"
}
layer {
  name: "inception_4c/3x3_reduce"
  type: "Convolution"
  bottom: "inception_4b/output"
  top: "inception_4c/3x3_reduce"
  param {
    lr_mult: 1
    decay_mult: 1
  }
  param {
    lr_mult: 2
    decay_mult: 0
  }
  convolution_param {
    num_output: 128
    kernel_size: 1
    weight_filler {
      type: "xavier"
      std: 0.09
    }
    bias_filler {
      type: "constant"
      value: 0.2
    }
  }
}
layer {
  name: "inception_4c/relu_3x3_reduce"
  type: "ReLU"
  bottom: "inception_4c/3x3_reduce"
  top: "inception_4c/3x3_reduce"
}
layer {
  name: "inception_4c/3x3"
  type: "Convolution"
  bottom: "inception_4c/3x3_reduce"
  top: "inception_4c/3x3"
  param {
    lr_mult: 1
    decay_mult: 1
  }
  param {
    lr_mult: 2
    decay_mult: 0
  }
  convolution_param {
    num_output: 256
    pad: 1
    kernel_size: 3
    weight_filler {
      type: "xavier"
      std: 0.03
    }
    bias_filler {
      type: "constant"
      value: 0.2
    }
  }
}
layer {
  name: "inception_4c/relu_3x3"
  type: "ReLU"
  bottom: "inception_4c/3x3"
  top: "inception_4c/3x3"
}
layer {
  name: "inception_4c/5x5_reduce"
  type: "Convolution"
  bottom: "inception_4b/output"
  top: "inception_4c/5x5_reduce"
  param {
    lr_mult: 1
    decay_mult: 1
  }
  param {
    lr_mult: 2
    decay_mult: 0
  }
  convolution_param {
    num_output: 24
    kernel_size: 1
    weight_filler {
      type: "xavier"
      std: 0.2
    }
    bias_filler {
      type: "constant"
      value: 0.2
    }
  }
}
layer {
  name: "inception_4c/relu_5x5_reduce"
  type: "ReLU"
  bottom: "inception_4c/5x5_reduce"
  top: "inception_4c/5x5_reduce"
}
layer {
  name: "inception_4c/5x5"
  type: "Convolution"
  bottom: "inception_4c/5x5_reduce"
  top: "inception_4c/5x5"
  param {
    lr_mult: 1
    decay_mult: 1
  }
  param {
    lr_mult: 2
    decay_mult: 0
  }
  convolution_param {
    num_output: 64
    pad: 2
    kernel_size: 5
    weight_filler {
      type: "xavier"
      std: 0.03
    }
    bias_filler {
      type: "constant"
      value: 0.2
    }
  }
}
layer {
  name: "inception_4c/relu_5x5"
  type: "ReLU"
  bottom: "inception_4c/5x5"
  top: "inception_4c/5x5"
}
layer {
  name: "inception_4c/pool"
  type: "Pooling"
  bottom: "inception_4b/output"
  top: "inception_4c/pool"
  pooling_param {
    pool: MAX
    kernel_size: 3
    stride: 1
    pad: 1
  }
}
layer {
  name: "inception_4c/pool_proj"
  type: "Convolution"
  bottom: "inception_4c/pool"
  top: "inception_4c/pool_proj"
  param {
    lr_mult: 1
    decay_mult: 1
  }
  param {
    lr_mult: 2
    decay_mult: 0
  }
  convolution_param {
    num_output: 64
    kernel_size: 1
    weight_filler {
      type: "xavier"
      std: 0.1
    }
    bias_filler {
      type: "constant"
      value: 0.2
    }
  }
}
layer {
  name: "inception_4c/relu_pool_proj"
  type: "ReLU"
  bottom: "inception_4c/pool_proj"
  top: "inception_4c/pool_proj"
}
layer {
  name: "inception_4c/output"
  type: "Concat"
  bottom: "inception_4c/1x1"
  bottom: "inception_4c/3x3"
  bottom: "inception_4c/5x5"
  bottom: "inception_4c/pool_proj"
  top: "inception_4c/output"
}
layer {
  name: "inception_4d/1x1"
  type: "Convolution"
  bottom: "inception_4c/output"
  top: "inception_4d/1x1"
  param {
    lr_mult: 1
    decay_mult: 1
  }
  param {
    lr_mult: 2
    decay_mult: 0
  }
  convolution_param {
    num_output: 112
    kernel_size: 1
    weight_filler {
      type: "xavier"
      std: 0.03
    }
    bias_filler {
      type: "constant"
      value: 0.2
    }
  }
}
layer {
  name: "inception_4d/relu_1x1"
  type: "ReLU"
  bottom: "inception_4d/1x1"
  top: "inception_4d/1x1"
}
layer {
  name: "inception_4d/3x3_reduce"
  type: "Convolution"
  bottom: "inception_4c/output"
  top: "inception_4d/3x3_reduce"
  param {
    lr_mult: 1
    decay_mult: 1
  }
  param {
    lr_mult: 2
    decay_mult: 0
  }
  convolution_param {
    num_output: 144
    kernel_size: 1
    weight_filler {
      type: "xavier"
      std: 0.09
    }
    bias_filler {
      type: "constant"
      value: 0.2
    }
  }
}
layer {
  name: "inception_4d/relu_3x3_reduce"
  type: "ReLU"
  bottom: "inception_4d/3x3_reduce"
  top: "inception_4d/3x3_reduce"
}
layer {
  name: "inception_4d/3x3"
  type: "Convolution"
  bottom: "inception_4d/3x3_reduce"
  top: "inception_4d/3x3"
  param {
    lr_mult: 1
    decay_mult: 1
  }
  param {
    lr_mult: 2
    decay_mult: 0
  }
  convolution_param {
    num_output: 288
    pad: 1
    kernel_size: 3
    weight_filler {
      type: "xavier"
      std: 0.03
    }
    bias_filler {
      type: "constant"
      value: 0.2
    }
  }
}
layer {
  name: "inception_4d/relu_3x3"
  type: "ReLU"
  bottom: "inception_4d/3x3"
  top: "inception_4d/3x3"
}
layer {
  name: "inception_4d/5x5_reduce"
  type: "Convolution"
  bottom: "inception_4c/output"
  top: "inception_4d/5x5_reduce"
  param {
    lr_mult: 1
    decay_mult: 1
  }
  param {
    lr_mult: 2
    decay_mult: 0
  }
  convolution_param {
    num_output: 32
    kernel_size: 1
    weight_filler {
      type: "xavier"
      std: 0.2
    }
    bias_filler {
      type: "constant"
      value: 0.2
    }
  }
}
layer {
  name: "inception_4d/relu_5x5_reduce"
  type: "ReLU"
  bottom: "inception_4d/5x5_reduce"
  top: "inception_4d/5x5_reduce"
}
layer {
  name: "inception_4d/5x5"
  type: "Convolution"
  bottom: "inception_4d/5x5_reduce"
  top: "inception_4d/5x5"
  param {
    lr_mult: 1
    decay_mult: 1
  }
  param {
    lr_mult: 2
    decay_mult: 0
  }
  convolution_param {
    num_output: 64
    pad: 2
    kernel_size: 5
    weight_filler {
      type: "xavier"
      std: 0.03
    }
    bias_filler {
      type: "constant"
      value: 0.2
    }
  }
}
layer {
  name: "inception_4d/relu_5x5"
  type: "ReLU"
  bottom: "inception_4d/5x5"
  top: "inception_4d/5x5"
}
layer {
  name: "inception_4d/pool"
  type: "Pooling"
  bottom: "inception_4c/output"
  top: "inception_4d/pool"
  pooling_param {
    pool: MAX
    kernel_size: 3
    stride: 1
    pad: 1
  }
}
layer {
  name: "inception_4d/pool_proj"
  type: "Convolution"
  bottom: "inception_4d/pool"
  top: "inception_4d/pool_proj"
  param {
    lr_mult: 1
    decay_mult: 1
  }
  param {
    lr_mult: 2
    decay_mult: 0
  }
  convolution_param {
    num_output: 64
    kernel_size: 1
    weight_filler {
      type: "xavier"
      std: 0.1
    }
    bias_filler {
      type: "constant"
      value: 0.2
    }
  }
}
layer {
  name: "inception_4d/relu_pool_proj"
  type: "ReLU"
  bottom: "inception_4d/pool_proj"
  top: "inception_4d/pool_proj"
}
layer {
  name: "inception_4d/output"
  type: "Concat"
  bottom: "inception_4d/1x1"
  bottom: "inception_4d/3x3"
  bottom: "inception_4d/5x5"
  bottom: "inception_4d/pool_proj"
  top: "inception_4d/output"
}
layer {
  name: "inception_4e/1x1"
  type: "Convolution"
  bottom: "inception_4d/output"
  top: "inception_4e/1x1"
  param {
    lr_mult: 1
    decay_mult: 1
  }
  param {
    lr_mult: 2
    decay_mult: 0
  }
  convolution_param {
    num_output: 256
    kernel_size: 1
    weight_filler {
      type: "xavier"
      std: 0.03
    }
    bias_filler {
      type: "constant"
      value: 0.2
    }
  }
}
layer {
  name: "inception_4e/relu_1x1"
  type: "ReLU"
  bottom: "inception_4e/1x1"
  top: "inception_4e/1x1"
}
layer {
  name: "inception_4e/3x3_reduce"
  type: "Convolution"
  bottom: "inception_4d/output"
  top: "inception_4e/3x3_reduce"
  param {
    lr_mult: 1
    decay_mult: 1
  }
  param {
    lr_mult: 2
    decay_mult: 0
  }
  convolution_param {
    num_output: 160
    kernel_size: 1
    weight_filler {
      type: "xavier"
      std: 0.09
    }
    bias_filler {
      type: "constant"
      value: 0.2
    }
  }
}
layer {
  name: "inception_4e/relu_3x3_reduce"
  type: "ReLU"
  bottom: "inception_4e/3x3_reduce"
  top: "inception_4e/3x3_reduce"
}
layer {
  name: "inception_4e/3x3"
  type: "Convolution"
  bottom: "inception_4e/3x3_reduce"
  top: "inception_4e/3x3"
  param {
    lr_mult: 1
    decay_mult: 1
  }
  param {
    lr_mult: 2
    decay_mult: 0
  }
  convolution_param {
    num_output: 320
    pad: 1
    kernel_size: 3
    weight_filler {
      type: "xavier"
      std: 0.03
    }
    bias_filler {
      type: "constant"
      value: 0.2
    }
  }
}
layer {
  name: "inception_4e/relu_3x3"
  type: "ReLU"
  bottom: "inception_4e/3x3"
  top: "inception_4e/3x3"
}
layer {
  name: "inception_4e/5x5_reduce"
  type: "Convolution"
  bottom: "inception_4d/output"
  top: "inception_4e/5x5_reduce"
  param {
    lr_mult: 1
    decay_mult: 1
  }
  param {
    lr_mult: 2
    decay_mult: 0
  }
  convolution_param {
    num_output: 32
    kernel_size: 1
    weight_filler {
      type: "xavier"
      std: 0.2
    }
    bias_filler {
      type: "constant"
      value: 0.2
    }
  }
}
layer {
  name: "inception_4e/relu_5x5_reduce"
  type: "ReLU"
  bottom: "inception_4e/5x5_reduce"
  top: "inception_4e/5x5_reduce"
}
layer {
  name: "inception_4e/5x5"
  type: "Convolution"
  bottom: "inception_4e/5x5_reduce"
  top: "inception_4e/5x5"
  param {
    lr_mult: 1
    decay_mult: 1
  }
  param {
    lr_mult: 2
    decay_mult: 0
  }
  convolution_param {
    num_output: 128
    pad: 2
    kernel_size: 5
    weight_filler {
      type: "xavier"
      std: 0.03
    }
    bias_filler {
      type: "constant"
      value: 0.2
    }
  }
}
layer {
  name: "inception_4e/relu_5x5"
  type: "ReLU"
  bottom: "inception_4e/5x5"
  top: "inception_4e/5x5"
}
layer {
  name: "inception_4e/pool"
  type: "Pooling"
  bottom: "inception_4d/output"
  top: "inception_4e/pool"
  pooling_param {
    pool: MAX
    kernel_size: 3
    stride: 1
    pad: 1
  }
}
layer {
  name: "inception_4e/pool_proj"
  type: "Convolution"
  bottom: "inception_4e/pool"
  top: "inception_4e/pool_proj"
  param {
    lr_mult: 1
    decay_mult: 1
  }
  param {
    lr_mult: 2
    decay_mult: 0
  }
  convolution_param {
    num_output: 128
    kernel_size: 1
    weight_filler {
      type: "xavier"
      std: 0.1
    }
    bias_filler {
      type: "constant"
      value: 0.2
    }
  }
}
layer {
  name: "inception_4e/relu_pool_proj"
  type: "ReLU"
  bottom: "inception_4e/pool_proj"
  top: "inception_4e/pool_proj"
}
layer {
  name: "inception_4e/output"
  type: "Concat"
  bottom: "inception_4e/1x1"
  bottom: "inception_4e/3x3"
  bottom: "inception_4e/5x5"
  bottom: "inception_4e/pool_proj"
  top: "inception_4e/output"
}
layer {
  name: "CAM_conv"
  type: "Convolution"
  bottom: "inception_4e/output"
  top: "CAM_conv"
  param {
    lr_mult: 1
    decay_mult: 1
  }
  param {
    lr_mult: 2
    decay_mult: 0
  }
  convolution_param {
    num_output: 1024
    pad: 1
    kernel_size: 3
    group: 2
    weight_filler {
      type: "gaussian"
      std: 0.01
    }
    bias_filler {
      type: "constant"
      value: 1
    }
  }
}
layer {
  name: "CAM_relu"
  type: "ReLU"
  bottom: "CAM_conv"
  top: "CAM_conv"
}
layer {
  name: "CAM_pool"
  type: "Pooling"
  bottom: "CAM_conv"
  top: "CAM_pool"
  pooling_param {
    pool: AVE
    kernel_size: 14
    stride: 14
  }
}
layer {
  name: "myCAM_fc"
  type: "InnerProduct"
  bottom: "CAM_pool"
  top: "myCAM_fc"
  param {
    lr_mult: 1
    decay_mult: 1
  }
  param {
    lr_mult: 2
    decay_mult: 0
  }
  inner_product_param {
    num_output: 5
    weight_filler {
      type: "xavier"
    }
    bias_filler {
      type: "constant"
      value: 0
    }
  }
}
layer {
  name: "prob"
  type: "Softmax"
  bottom: "myCAM_fc"
  top: "prob"
}
I0527 15:12:12.421355  6107 net.cpp:437] Input 0 -> data
I0527 15:12:12.421386  6107 layer_factory.hpp:74] Creating layer conv1/7x7_s2
I0527 15:12:12.421396  6107 net.cpp:99] Creating Layer conv1/7x7_s2
I0527 15:12:12.421401  6107 net.cpp:479] conv1/7x7_s2 <- data
I0527 15:12:12.421408  6107 net.cpp:435] conv1/7x7_s2 -> conv1/7x7_s2
I0527 15:12:12.421416  6107 net.cpp:163] Setting up conv1/7x7_s2
WARNING: Logging before InitGoogleLogging() is written to STDERR
I0527 15:12:12.496723  6105 net.cpp:46] Initializing net from parameters: 
name: "GoogleNet"
input: "data"
input_dim: 10
input_dim: 3
input_dim: 224
input_dim: 224
force_backward: true
state {
  phase: TEST
}
layer {
  name: "conv1/7x7_s2"
  type: "Convolution"
  bottom: "data"
  top: "conv1/7x7_s2"
  param {
    lr_mult: 1
    decay_mult: 1
  }
  param {
    lr_mult: 2
    decay_mult: 0
  }
  convolution_param {
    num_output: 64
    pad: 3
    kernel_size: 7
    stride: 2
    weight_filler {
      type: "xavier"
      std: 0.1
    }
    bias_filler {
      type: "constant"
      value: 0.2
    }
  }
}
layer {
  name: "conv1/relu_7x7"
  type: "ReLU"
  bottom: "conv1/7x7_s2"
  top: "conv1/7x7_s2"
}
layer {
  name: "pool1/3x3_s2"
  type: "Pooling"
  bottom: "conv1/7x7_s2"
  top: "pool1/3x3_s2"
  pooling_param {
    pool: MAX
    kernel_size: 3
    stride: 2
  }
}
layer {
  name: "pool1/norm1"
  type: "LRN"
  bottom: "pool1/3x3_s2"
  top: "pool1/norm1"
  lrn_param {
    local_size: 5
    alpha: 0.0001
    beta: 0.75
  }
}
layer {
  name: "conv2/3x3_reduce"
  type: "Convolution"
  bottom: "pool1/norm1"
  top: "conv2/3x3_reduce"
  param {
    lr_mult: 1
    decay_mult: 1
  }
  param {
    lr_mult: 2
    decay_mult: 0
  }
  convolution_param {
    num_output: 64
    kernel_size: 1
    weight_filler {
      type: "xavier"
      std: 0.1
    }
    bias_filler {
      type: "constant"
      value: 0.2
    }
  }
}
layer {
  name: "conv2/relu_3x3_reduce"
  type: "ReLU"
  bottom: "conv2/3x3_reduce"
  top: "conv2/3x3_reduce"
}
layer {
  name: "conv2/3x3"
  type: "Convolution"
  bottom: "conv2/3x3_reduce"
  top: "conv2/3x3"
  param {
    lr_mult: 1
    decay_mult: 1
  }
  param {
    lr_mult: 2
    decay_mult: 0
  }
  convolution_param {
    num_output: 192
    pad: 1
    kernel_size: 3
    weight_filler {
      type: "xavier"
      std: 0.03
    }
    bias_filler {
      type: "constant"
      value: 0.2
    }
  }
}
layer {
  name: "conv2/relu_3x3"
  type: "ReLU"
  bottom: "conv2/3x3"
  top: "conv2/3x3"
}
layer {
  name: "conv2/norm2"
  type: "LRN"
  bottom: "conv2/3x3"
  top: "conv2/norm2"
  lrn_param {
    local_size: 5
    alpha: 0.0001
    beta: 0.75
  }
}
layer {
  name: "pool2/3x3_s2"
  type: "Pooling"
  bottom: "conv2/norm2"
  top: "pool2/3x3_s2"
  pooling_param {
    pool: MAX
    kernel_size: 3
    stride: 2
  }
}
layer {
  name: "inception_3a/1x1"
  type: "Convolution"
  bottom: "pool2/3x3_s2"
  top: "inception_3a/1x1"
  param {
    lr_mult: 1
    decay_mult: 1
  }
  param {
    lr_mult: 2
    decay_mult: 0
  }
  convolution_param {
    num_output: 64
    kernel_size: 1
    weight_filler {
      type: "xavier"
      std: 0.03
    }
    bias_filler {
      type: "constant"
      value: 0.2
    }
  }
}
layer {
  name: "inception_3a/relu_1x1"
  type: "ReLU"
  bottom: "inception_3a/1x1"
  top: "inception_3a/1x1"
}
layer {
  name: "inception_3a/3x3_reduce"
  type: "Convolution"
  bottom: "pool2/3x3_s2"
  top: "inception_3a/3x3_reduce"
  param {
    lr_mult: 1
    decay_mult: 1
  }
  param {
    lr_mult: 2
    decay_mult: 0
  }
  convolution_param {
    num_output: 96
    kernel_size: 1
    weight_filler {
      type: "xavier"
      std: 0.09
    }
    bias_filler {
      type: "constant"
      value: 0.2
    }
  }
}
layer {
  name: "inception_3a/relu_3x3_reduce"
  type: "ReLU"
  bottom: "inception_3a/3x3_reduce"
  top: "inception_3a/3x3_reduce"
}
layer {
  name: "inception_3a/3x3"
  type: "Convolution"
  bottom: "inception_3a/3x3_reduce"
  top: "inception_3a/3x3"
  param {
    lr_mult: 1
    decay_mult: 1
  }
  param {
    lr_mult: 2
    decay_mult: 0
  }
  convolution_param {
    num_output: 128
    pad: 1
    kernel_size: 3
    weight_filler {
      type: "xavier"
      std: 0.03
    }
    bias_filler {
      type: "constant"
      value: 0.2
    }
  }
}
layer {
  name: "inception_3a/relu_3x3"
  type: "ReLU"
  bottom: "inception_3a/3x3"
  top: "inception_3a/3x3"
}
layer {
  name: "inception_3a/5x5_reduce"
  type: "Convolution"
  bottom: "pool2/3x3_s2"
  top: "inception_3a/5x5_reduce"
  param {
    lr_mult: 1
    decay_mult: 1
  }
  param {
    lr_mult: 2
    decay_mult: 0
  }
  convolution_param {
    num_output: 16
    kernel_size: 1
    weight_filler {
      type: "xavier"
      std: 0.2
    }
    bias_filler {
      type: "constant"
      value: 0.2
    }
  }
}
layer {
  name: "inception_3a/relu_5x5_reduce"
  type: "ReLU"
  bottom: "inception_3a/5x5_reduce"
  top: "inception_3a/5x5_reduce"
}
layer {
  name: "inception_3a/5x5"
  type: "Convolution"
  bottom: "inception_3a/5x5_reduce"
  top: "inception_3a/5x5"
  param {
    lr_mult: 1
    decay_mult: 1
  }
  param {
    lr_mult: 2
    decay_mult: 0
  }
  convolution_param {
    num_output: 32
    pad: 2
    kernel_size: 5
    weight_filler {
      type: "xavier"
      std: 0.03
    }
    bias_filler {
      type: "constant"
      value: 0.2
    }
  }
}
layer {
  name: "inception_3a/relu_5x5"
  type: "ReLU"
  bottom: "inception_3a/5x5"
  top: "inception_3a/5x5"
}
layer {
  name: "inception_3a/pool"
  type: "Pooling"
  bottom: "pool2/3x3_s2"
  top: "inception_3a/pool"
  pooling_param {
    pool: MAX
    kernel_size: 3
    stride: 1
    pad: 1
  }
}
layer {
  name: "inception_3a/pool_proj"
  type: "Convolution"
  bottom: "inception_3a/pool"
  top: "inception_3a/pool_proj"
  param {
    lr_mult: 1
    decay_mult: 1
  }
  param {
    lr_mult: 2
    decay_mult: 0
  }
  convolution_param {
    num_output: 32
    kernel_size: 1
    weight_filler {
      type: "xavier"
      std: 0.1
    }
    bias_filler {
      type: "constant"
      value: 0.2
    }
  }
}
layer {
  name: "inception_3a/relu_pool_proj"
  type: "ReLU"
  bottom: "inception_3a/pool_proj"
  top: "inception_3a/pool_proj"
}
layer {
  name: "inception_3a/output"
  type: "Concat"
  bottom: "inception_3a/1x1"
  bottom: "inception_3a/3x3"
  bottom: "inception_3a/5x5"
  bottom: "inception_3a/pool_proj"
  top: "inception_3a/output"
}
layer {
  name: "inception_3b/1x1"
  type: "Convolution"
  bottom: "inception_3a/output"
  top: "inception_3b/1x1"
  param {
    lr_mult: 1
    decay_mult: 1
  }
  param {
    lr_mult: 2
    decay_mult: 0
  }
  convolution_param {
    num_output: 128
    kernel_size: 1
    weight_filler {
      type: "xavier"
      std: 0.03
    }
    bias_filler {
      type: "constant"
      value: 0.2
    }
  }
}
layer {
  name: "inception_3b/relu_1x1"
  type: "ReLU"
  bottom: "inception_3b/1x1"
  top: "inception_3b/1x1"
}
layer {
  name: "inception_3b/3x3_reduce"
  type: "Convolution"
  bottom: "inception_3a/output"
  top: "inception_3b/3x3_reduce"
  param {
    lr_mult: 1
    decay_mult: 1
  }
  param {
    lr_mult: 2
    decay_mult: 0
  }
  convolution_param {
    num_output: 128
    kernel_size: 1
    weight_filler {
      type: "xavier"
      std: 0.09
    }
    bias_filler {
      type: "constant"
      value: 0.2
    }
  }
}
layer {
  name: "inception_3b/relu_3x3_reduce"
  type: "ReLU"
  bottom: "inception_3b/3x3_reduce"
  top: "inception_3b/3x3_reduce"
}
layer {
  name: "inception_3b/3x3"
  type: "Convolution"
  bottom: "inception_3b/3x3_reduce"
  top: "inception_3b/3x3"
  param {
    lr_mult: 1
    decay_mult: 1
  }
  param {
    lr_mult: 2
    decay_mult: 0
  }
  convolution_param {
    num_output: 192
    pad: 1
    kernel_size: 3
    weight_filler {
      type: "xavier"
      std: 0.03
    }
    bias_filler {
      type: "constant"
      value: 0.2
    }
  }
}
layer {
  name: "inception_3b/relu_3x3"
  type: "ReLU"
  bottom: "inception_3b/3x3"
  top: "inception_3b/3x3"
}
layer {
  name: "inception_3b/5x5_reduce"
  type: "Convolution"
  bottom: "inception_3a/output"
  top: "inception_3b/5x5_reduce"
  param {
    lr_mult: 1
    decay_mult: 1
  }
  param {
    lr_mult: 2
    decay_mult: 0
  }
  convolution_param {
    num_output: 32
    kernel_size: 1
    weight_filler {
      type: "xavier"
      std: 0.2
    }
    bias_filler {
      type: "constant"
      value: 0.2
    }
  }
}
layer {
  name: "inception_3b/relu_5x5_reduce"
  type: "ReLU"
  bottom: "inception_3b/5x5_reduce"
  top: "inception_3b/5x5_reduce"
}
layer {
  name: "inception_3b/5x5"
  type: "Convolution"
  bottom: "inception_3b/5x5_reduce"
  top: "inception_3b/5x5"
  param {
    lr_mult: 1
    decay_mult: 1
  }
  param {
    lr_mult: 2
    decay_mult: 0
  }
  convolution_param {
    num_output: 96
    pad: 2
    kernel_size: 5
    weight_filler {
      type: "xavier"
      std: 0.03
    }
    bias_filler {
      type: "constant"
      value: 0.2
    }
  }
}
layer {
  name: "inception_3b/relu_5x5"
  type: "ReLU"
  bottom: "inception_3b/5x5"
  top: "inception_3b/5x5"
}
layer {
  name: "inception_3b/pool"
  type: "Pooling"
  bottom: "inception_3a/output"
  top: "inception_3b/pool"
  pooling_param {
    pool: MAX
    kernel_size: 3
    stride: 1
    pad: 1
  }
}
layer {
  name: "inception_3b/pool_proj"
  type: "Convolution"
  bottom: "inception_3b/pool"
  top: "inception_3b/pool_proj"
  param {
    lr_mult: 1
    decay_mult: 1
  }
  param {
    lr_mult: 2
    decay_mult: 0
  }
  convolution_param {
    num_output: 64
    kernel_size: 1
    weight_filler {
      type: "xavier"
      std: 0.1
    }
    bias_filler {
      type: "constant"
      value: 0.2
    }
  }
}
layer {
  name: "inception_3b/relu_pool_proj"
  type: "ReLU"
  bottom: "inception_3b/pool_proj"
  top: "inception_3b/pool_proj"
}
layer {
  name: "inception_3b/output"
  type: "Concat"
  bottom: "inception_3b/1x1"
  bottom: "inception_3b/3x3"
  bottom: "inception_3b/5x5"
  bottom: "inception_3b/pool_proj"
  top: "inception_3b/output"
}
layer {
  name: "pool3/3x3_s2"
  type: "Pooling"
  bottom: "inception_3b/output"
  top: "pool3/3x3_s2"
  pooling_param {
    pool: MAX
    kernel_size: 3
    stride: 2
  }
}
layer {
  name: "inception_4a/1x1"
  type: "Convolution"
  bottom: "pool3/3x3_s2"
  top: "inception_4a/1x1"
  param {
    lr_mult: 1
    decay_mult: 1
  }
  param {
    lr_mult: 2
    decay_mult: 0
  }
  convolution_param {
    num_output: 192
    kernel_size: 1
    weight_filler {
      type: "xavier"
      std: 0.03
    }
    bias_filler {
      type: "constant"
      value: 0.2
    }
  }
}
layer {
  name: "inception_4a/relu_1x1"
  type: "ReLU"
  bottom: "inception_4a/1x1"
  top: "inception_4a/1x1"
}
layer {
  name: "inception_4a/3x3_reduce"
  type: "Convolution"
  bottom: "pool3/3x3_s2"
  top: "inception_4a/3x3_reduce"
  param {
    lr_mult: 1
    decay_mult: 1
  }
  param {
    lr_mult: 2
    decay_mult: 0
  }
  convolution_param {
    num_output: 96
    kernel_size: 1
    weight_filler {
      type: "xavier"
      std: 0.09
    }
    bias_filler {
      type: "constant"
      value: 0.2
    }
  }
}
layer {
  name: "inception_4a/relu_3x3_reduce"
  type: "ReLU"
  bottom: "inception_4a/3x3_reduce"
  top: "inception_4a/3x3_reduce"
}
layer {
  name: "inception_4a/3x3"
  type: "Convolution"
  bottom: "inception_4a/3x3_reduce"
  top: "inception_4a/3x3"
  param {
    lr_mult: 1
    decay_mult: 1
  }
  param {
    lr_mult: 2
    decay_mult: 0
  }
  convolution_param {
    num_output: 208
    pad: 1
    kernel_size: 3
    weight_filler {
      type: "xavier"
      std: 0.03
    }
    bias_filler {
      type: "constant"
      value: 0.2
    }
  }
}
layer {
  name: "inception_4a/relu_3x3"
  type: "ReLU"
  bottom: "inception_4a/3x3"
  top: "inception_4a/3x3"
}
layer {
  name: "inception_4a/5x5_reduce"
  type: "Convolution"
  bottom: "pool3/3x3_s2"
  top: "inception_4a/5x5_reduce"
  param {
    lr_mult: 1
    decay_mult: 1
  }
  param {
    lr_mult: 2
    decay_mult: 0
  }
  convolution_param {
    num_output: 16
    kernel_size: 1
    weight_filler {
      type: "xavier"
      std: 0.2
    }
    bias_filler {
      type: "constant"
      value: 0.2
    }
  }
}
layer {
  name: "inception_4a/relu_5x5_reduce"
  type: "ReLU"
  bottom: "inception_4a/5x5_reduce"
  top: "inception_4a/5x5_reduce"
}
layer {
  name: "inception_4a/5x5"
  type: "Convolution"
  bottom: "inception_4a/5x5_reduce"
  top: "inception_4a/5x5"
  param {
    lr_mult: 1
    decay_mult: 1
  }
  param {
    lr_mult: 2
    decay_mult: 0
  }
  convolution_param {
    num_output: 48
    pad: 2
    kernel_size: 5
    weight_filler {
      type: "xavier"
      std: 0.03
    }
    bias_filler {
      type: "constant"
      value: 0.2
    }
  }
}
layer {
  name: "inception_4a/relu_5x5"
  type: "ReLU"
  bottom: "inception_4a/5x5"
  top: "inception_4a/5x5"
}
layer {
  name: "inception_4a/pool"
  type: "Pooling"
  bottom: "pool3/3x3_s2"
  top: "inception_4a/pool"
  pooling_param {
    pool: MAX
    kernel_size: 3
    stride: 1
    pad: 1
  }
}
layer {
  name: "inception_4a/pool_proj"
  type: "Convolution"
  bottom: "inception_4a/pool"
  top: "inception_4a/pool_proj"
  param {
    lr_mult: 1
    decay_mult: 1
  }
  param {
    lr_mult: 2
    decay_mult: 0
  }
  convolution_param {
    num_output: 64
    kernel_size: 1
    weight_filler {
      type: "xavier"
      std: 0.1
    }
    bias_filler {
      type: "constant"
      value: 0.2
    }
  }
}
layer {
  name: "inception_4a/relu_pool_proj"
  type: "ReLU"
  bottom: "inception_4a/pool_proj"
  top: "inception_4a/pool_proj"
}
layer {
  name: "inception_4a/output"
  type: "Concat"
  bottom: "inception_4a/1x1"
  bottom: "inception_4a/3x3"
  bottom: "inception_4a/5x5"
  bottom: "inception_4a/pool_proj"
  top: "inception_4a/output"
}
layer {
  name: "inception_4b/1x1"
  type: "Convolution"
  bottom: "inception_4a/output"
  top: "inception_4b/1x1"
  param {
    lr_mult: 1
    decay_mult: 1
  }
  param {
    lr_mult: 2
    decay_mult: 0
  }
  convolution_param {
    num_output: 160
    kernel_size: 1
    weight_filler {
      type: "xavier"
      std: 0.03
    }
    bias_filler {
      type: "constant"
      value: 0.2
    }
  }
}
layer {
  name: "inception_4b/relu_1x1"
  type: "ReLU"
  bottom: "inception_4b/1x1"
  top: "inception_4b/1x1"
}
layer {
  name: "inception_4b/3x3_reduce"
  type: "Convolution"
  bottom: "inception_4a/output"
  top: "inception_4b/3x3_reduce"
  param {
    lr_mult: 1
    decay_mult: 1
  }
  param {
    lr_mult: 2
    decay_mult: 0
  }
  convolution_param {
    num_output: 112
    kernel_size: 1
    weight_filler {
      type: "xavier"
      std: 0.09
    }
    bias_filler {
      type: "constant"
      value: 0.2
    }
  }
}
layer {
  name: "inception_4b/relu_3x3_reduce"
  type: "ReLU"
  bottom: "inception_4b/3x3_reduce"
  top: "inception_4b/3x3_reduce"
}
layer {
  name: "inception_4b/3x3"
  type: "Convolution"
  bottom: "inception_4b/3x3_reduce"
  top: "inception_4b/3x3"
  param {
    lr_mult: 1
    decay_mult: 1
  }
  param {
    lr_mult: 2
    decay_mult: 0
  }
  convolution_param {
    num_output: 224
    pad: 1
    kernel_size: 3
    weight_filler {
      type: "xavier"
      std: 0.03
    }
    bias_filler {
      type: "constant"
      value: 0.2
    }
  }
}
layer {
  name: "inception_4b/relu_3x3"
  type: "ReLU"
  bottom: "inception_4b/3x3"
  top: "inception_4b/3x3"
}
layer {
  name: "inception_4b/5x5_reduce"
  type: "Convolution"
  bottom: "inception_4a/output"
  top: "inception_4b/5x5_reduce"
  param {
    lr_mult: 1
    decay_mult: 1
  }
  param {
    lr_mult: 2
    decay_mult: 0
  }
  convolution_param {
    num_output: 24
    kernel_size: 1
    weight_filler {
      type: "xavier"
      std: 0.2
    }
    bias_filler {
      type: "constant"
      value: 0.2
    }
  }
}
layer {
  name: "inception_4b/relu_5x5_reduce"
  type: "ReLU"
  bottom: "inception_4b/5x5_reduce"
  top: "inception_4b/5x5_reduce"
}
layer {
  name: "inception_4b/5x5"
  type: "Convolution"
  bottom: "inception_4b/5x5_reduce"
  top: "inception_4b/5x5"
  param {
    lr_mult: 1
    decay_mult: 1
  }
  param {
    lr_mult: 2
    decay_mult: 0
  }
  convolution_param {
    num_output: 64
    pad: 2
    kernel_size: 5
    weight_filler {
      type: "xavier"
      std: 0.03
    }
    bias_filler {
      type: "constant"
      value: 0.2
    }
  }
}
layer {
  name: "inception_4b/relu_5x5"
  type: "ReLU"
  bottom: "inception_4b/5x5"
  top: "inception_4b/5x5"
}
layer {
  name: "inception_4b/pool"
  type: "Pooling"
  bottom: "inception_4a/output"
  top: "inception_4b/pool"
  pooling_param {
    pool: MAX
    kernel_size: 3
    stride: 1
    pad: 1
  }
}
layer {
  name: "inception_4b/pool_proj"
  type: "Convolution"
  bottom: "inception_4b/pool"
  top: "inception_4b/pool_proj"
  param {
    lr_mult: 1
    decay_mult: 1
  }
  param {
    lr_mult: 2
    decay_mult: 0
  }
  convolution_param {
    num_output: 64
    kernel_size: 1
    weight_filler {
      type: "xavier"
      std: 0.1
    }
    bias_filler {
      type: "constant"
      value: 0.2
    }
  }
}
layer {
  name: "inception_4b/relu_pool_proj"
  type: "ReLU"
  bottom: "inception_4b/pool_proj"
  top: "inception_4b/pool_proj"
}
layer {
  name: "inception_4b/output"
  type: "Concat"
  bottom: "inception_4b/1x1"
  bottom: "inception_4b/3x3"
  bottom: "inception_4b/5x5"
  bottom: "inception_4b/pool_proj"
  top: "inception_4b/output"
}
layer {
  name: "inception_4c/1x1"
  type: "Convolution"
  bottom: "inception_4b/output"
  top: "inception_4c/1x1"
  param {
    lr_mult: 1
    decay_mult: 1
  }
  param {
    lr_mult: 2
    decay_mult: 0
  }
  convolution_param {
    num_output: 128
    kernel_size: 1
    weight_filler {
      type: "xavier"
      std: 0.03
    }
    bias_filler {
      type: "constant"
      value: 0.2
    }
  }
}
layer {
  name: "inception_4c/relu_1x1"
  type: "ReLU"
  bottom: "inception_4c/1x1"
  top: "inception_4c/1x1"
}
layer {
  name: "inception_4c/3x3_reduce"
  type: "Convolution"
  bottom: "inception_4b/output"
  top: "inception_4c/3x3_reduce"
  param {
    lr_mult: 1
    decay_mult: 1
  }
  param {
    lr_mult: 2
    decay_mult: 0
  }
  convolution_param {
    num_output: 128
    kernel_size: 1
    weight_filler {
      type: "xavier"
      std: 0.09
    }
    bias_filler {
      type: "constant"
      value: 0.2
    }
  }
}
layer {
  name: "inception_4c/relu_3x3_reduce"
  type: "ReLU"
  bottom: "inception_4c/3x3_reduce"
  top: "inception_4c/3x3_reduce"
}
layer {
  name: "inception_4c/3x3"
  type: "Convolution"
  bottom: "inception_4c/3x3_reduce"
  top: "inception_4c/3x3"
  param {
    lr_mult: 1
    decay_mult: 1
  }
  param {
    lr_mult: 2
    decay_mult: 0
  }
  convolution_param {
    num_output: 256
    pad: 1
    kernel_size: 3
    weight_filler {
      type: "xavier"
      std: 0.03
    }
    bias_filler {
      type: "constant"
      value: 0.2
    }
  }
}
layer {
  name: "inception_4c/relu_3x3"
  type: "ReLU"
  bottom: "inception_4c/3x3"
  top: "inception_4c/3x3"
}
layer {
  name: "inception_4c/5x5_reduce"
  type: "Convolution"
  bottom: "inception_4b/output"
  top: "inception_4c/5x5_reduce"
  param {
    lr_mult: 1
    decay_mult: 1
  }
  param {
    lr_mult: 2
    decay_mult: 0
  }
  convolution_param {
    num_output: 24
    kernel_size: 1
    weight_filler {
      type: "xavier"
      std: 0.2
    }
    bias_filler {
      type: "constant"
      value: 0.2
    }
  }
}
layer {
  name: "inception_4c/relu_5x5_reduce"
  type: "ReLU"
  bottom: "inception_4c/5x5_reduce"
  top: "inception_4c/5x5_reduce"
}
layer {
  name: "inception_4c/5x5"
  type: "Convolution"
  bottom: "inception_4c/5x5_reduce"
  top: "inception_4c/5x5"
  param {
    lr_mult: 1
    decay_mult: 1
  }
  param {
    lr_mult: 2
    decay_mult: 0
  }
  convolution_param {
    num_output: 64
    pad: 2
    kernel_size: 5
    weight_filler {
      type: "xavier"
      std: 0.03
    }
    bias_filler {
      type: "constant"
      value: 0.2
    }
  }
}
layer {
  name: "inception_4c/relu_5x5"
  type: "ReLU"
  bottom: "inception_4c/5x5"
  top: "inception_4c/5x5"
}
layer {
  name: "inception_4c/pool"
  type: "Pooling"
  bottom: "inception_4b/output"
  top: "inception_4c/pool"
  pooling_param {
    pool: MAX
    kernel_size: 3
    stride: 1
    pad: 1
  }
}
layer {
  name: "inception_4c/pool_proj"
  type: "Convolution"
  bottom: "inception_4c/pool"
  top: "inception_4c/pool_proj"
  param {
    lr_mult: 1
    decay_mult: 1
  }
  param {
    lr_mult: 2
    decay_mult: 0
  }
  convolution_param {
    num_output: 64
    kernel_size: 1
    weight_filler {
      type: "xavier"
      std: 0.1
    }
    bias_filler {
      type: "constant"
      value: 0.2
    }
  }
}
layer {
  name: "inception_4c/relu_pool_proj"
  type: "ReLU"
  bottom: "inception_4c/pool_proj"
  top: "inception_4c/pool_proj"
}
layer {
  name: "inception_4c/output"
  type: "Concat"
  bottom: "inception_4c/1x1"
  bottom: "inception_4c/3x3"
  bottom: "inception_4c/5x5"
  bottom: "inception_4c/pool_proj"
  top: "inception_4c/output"
}
layer {
  name: "inception_4d/1x1"
  type: "Convolution"
  bottom: "inception_4c/output"
  top: "inception_4d/1x1"
  param {
    lr_mult: 1
    decay_mult: 1
  }
  param {
    lr_mult: 2
    decay_mult: 0
  }
  convolution_param {
    num_output: 112
    kernel_size: 1
    weight_filler {
      type: "xavier"
      std: 0.03
    }
    bias_filler {
      type: "constant"
      value: 0.2
    }
  }
}
layer {
  name: "inception_4d/relu_1x1"
  type: "ReLU"
  bottom: "inception_4d/1x1"
  top: "inception_4d/1x1"
}
layer {
  name: "inception_4d/3x3_reduce"
  type: "Convolution"
  bottom: "inception_4c/output"
  top: "inception_4d/3x3_reduce"
  param {
    lr_mult: 1
    decay_mult: 1
  }
  param {
    lr_mult: 2
    decay_mult: 0
  }
  convolution_param {
    num_output: 144
    kernel_size: 1
    weight_filler {
      type: "xavier"
      std: 0.09
    }
    bias_filler {
      type: "constant"
      value: 0.2
    }
  }
}
layer {
  name: "inception_4d/relu_3x3_reduce"
  type: "ReLU"
  bottom: "inception_4d/3x3_reduce"
  top: "inception_4d/3x3_reduce"
}
layer {
  name: "inception_4d/3x3"
  type: "Convolution"
  bottom: "inception_4d/3x3_reduce"
  top: "inception_4d/3x3"
  param {
    lr_mult: 1
    decay_mult: 1
  }
  param {
    lr_mult: 2
    decay_mult: 0
  }
  convolution_param {
    num_output: 288
    pad: 1
    kernel_size: 3
    weight_filler {
      type: "xavier"
      std: 0.03
    }
    bias_filler {
      type: "constant"
      value: 0.2
    }
  }
}
layer {
  name: "inception_4d/relu_3x3"
  type: "ReLU"
  bottom: "inception_4d/3x3"
  top: "inception_4d/3x3"
}
layer {
  name: "inception_4d/5x5_reduce"
  type: "Convolution"
  bottom: "inception_4c/output"
  top: "inception_4d/5x5_reduce"
  param {
    lr_mult: 1
    decay_mult: 1
  }
  param {
    lr_mult: 2
    decay_mult: 0
  }
  convolution_param {
    num_output: 32
    kernel_size: 1
    weight_filler {
      type: "xavier"
      std: 0.2
    }
    bias_filler {
      type: "constant"
      value: 0.2
    }
  }
}
layer {
  name: "inception_4d/relu_5x5_reduce"
  type: "ReLU"
  bottom: "inception_4d/5x5_reduce"
  top: "inception_4d/5x5_reduce"
}
layer {
  name: "inception_4d/5x5"
  type: "Convolution"
  bottom: "inception_4d/5x5_reduce"
  top: "inception_4d/5x5"
  param {
    lr_mult: 1
    decay_mult: 1
  }
  param {
    lr_mult: 2
    decay_mult: 0
  }
  convolution_param {
    num_output: 64
    pad: 2
    kernel_size: 5
    weight_filler {
      type: "xavier"
      std: 0.03
    }
    bias_filler {
      type: "constant"
      value: 0.2
    }
  }
}
layer {
  name: "inception_4d/relu_5x5"
  type: "ReLU"
  bottom: "inception_4d/5x5"
  top: "inception_4d/5x5"
}
layer {
  name: "inception_4d/pool"
  type: "Pooling"
  bottom: "inception_4c/output"
  top: "inception_4d/pool"
  pooling_param {
    pool: MAX
    kernel_size: 3
    stride: 1
    pad: 1
  }
}
layer {
  name: "inception_4d/pool_proj"
  type: "Convolution"
  bottom: "inception_4d/pool"
  top: "inception_4d/pool_proj"
  param {
    lr_mult: 1
    decay_mult: 1
  }
  param {
    lr_mult: 2
    decay_mult: 0
  }
  convolution_param {
    num_output: 64
    kernel_size: 1
    weight_filler {
      type: "xavier"
      std: 0.1
    }
    bias_filler {
      type: "constant"
      value: 0.2
    }
  }
}
layer {
  name: "inception_4d/relu_pool_proj"
  type: "ReLU"
  bottom: "inception_4d/pool_proj"
  top: "inception_4d/pool_proj"
}
layer {
  name: "inception_4d/output"
  type: "Concat"
  bottom: "inception_4d/1x1"
  bottom: "inception_4d/3x3"
  bottom: "inception_4d/5x5"
  bottom: "inception_4d/pool_proj"
  top: "inception_4d/output"
}
layer {
  name: "inception_4e/1x1"
  type: "Convolution"
  bottom: "inception_4d/output"
  top: "inception_4e/1x1"
  param {
    lr_mult: 1
    decay_mult: 1
  }
  param {
    lr_mult: 2
    decay_mult: 0
  }
  convolution_param {
    num_output: 256
    kernel_size: 1
    weight_filler {
      type: "xavier"
      std: 0.03
    }
    bias_filler {
      type: "constant"
      value: 0.2
    }
  }
}
layer {
  name: "inception_4e/relu_1x1"
  type: "ReLU"
  bottom: "inception_4e/1x1"
  top: "inception_4e/1x1"
}
layer {
  name: "inception_4e/3x3_reduce"
  type: "Convolution"
  bottom: "inception_4d/output"
  top: "inception_4e/3x3_reduce"
  param {
    lr_mult: 1
    decay_mult: 1
  }
  param {
    lr_mult: 2
    decay_mult: 0
  }
  convolution_param {
    num_output: 160
    kernel_size: 1
    weight_filler {
      type: "xavier"
      std: 0.09
    }
    bias_filler {
      type: "constant"
      value: 0.2
    }
  }
}
layer {
  name: "inception_4e/relu_3x3_reduce"
  type: "ReLU"
  bottom: "inception_4e/3x3_reduce"
  top: "inception_4e/3x3_reduce"
}
layer {
  name: "inception_4e/3x3"
  type: "Convolution"
  bottom: "inception_4e/3x3_reduce"
  top: "inception_4e/3x3"
  param {
    lr_mult: 1
    decay_mult: 1
  }
  param {
    lr_mult: 2
    decay_mult: 0
  }
  convolution_param {
    num_output: 320
    pad: 1
    kernel_size: 3
    weight_filler {
      type: "xavier"
      std: 0.03
    }
    bias_filler {
      type: "constant"
      value: 0.2
    }
  }
}
layer {
  name: "inception_4e/relu_3x3"
  type: "ReLU"
  bottom: "inception_4e/3x3"
  top: "inception_4e/3x3"
}
layer {
  name: "inception_4e/5x5_reduce"
  type: "Convolution"
  bottom: "inception_4d/output"
  top: "inception_4e/5x5_reduce"
  param {
    lr_mult: 1
    decay_mult: 1
  }
  param {
    lr_mult: 2
    decay_mult: 0
  }
  convolution_param {
    num_output: 32
    kernel_size: 1
    weight_filler {
      type: "xavier"
      std: 0.2
    }
    bias_filler {
      type: "constant"
      value: 0.2
    }
  }
}
layer {
  name: "inception_4e/relu_5x5_reduce"
  type: "ReLU"
  bottom: "inception_4e/5x5_reduce"
  top: "inception_4e/5x5_reduce"
}
layer {
  name: "inception_4e/5x5"
  type: "Convolution"
  bottom: "inception_4e/5x5_reduce"
  top: "inception_4e/5x5"
  param {
    lr_mult: 1
    decay_mult: 1
  }
  param {
    lr_mult: 2
    decay_mult: 0
  }
  convolution_param {
    num_output: 128
    pad: 2
    kernel_size: 5
    weight_filler {
      type: "xavier"
      std: 0.03
    }
    bias_filler {
      type: "constant"
      value: 0.2
    }
  }
}
layer {
  name: "inception_4e/relu_5x5"
  type: "ReLU"
  bottom: "inception_4e/5x5"
  top: "inception_4e/5x5"
}
layer {
  name: "inception_4e/pool"
  type: "Pooling"
  bottom: "inception_4d/output"
  top: "inception_4e/pool"
  pooling_param {
    pool: MAX
    kernel_size: 3
    stride: 1
    pad: 1
  }
}
layer {
  name: "inception_4e/pool_proj"
  type: "Convolution"
  bottom: "inception_4e/pool"
  top: "inception_4e/pool_proj"
  param {
    lr_mult: 1
    decay_mult: 1
  }
  param {
    lr_mult: 2
    decay_mult: 0
  }
  convolution_param {
    num_output: 128
    kernel_size: 1
    weight_filler {
      type: "xavier"
      std: 0.1
    }
    bias_filler {
      type: "constant"
      value: 0.2
    }
  }
}
layer {
  name: "inception_4e/relu_pool_proj"
  type: "ReLU"
  bottom: "inception_4e/pool_proj"
  top: "inception_4e/pool_proj"
}
layer {
  name: "inception_4e/output"
  type: "Concat"
  bottom: "inception_4e/1x1"
  bottom: "inception_4e/3x3"
  bottom: "inception_4e/5x5"
  bottom: "inception_4e/pool_proj"
  top: "inception_4e/output"
}
layer {
  name: "CAM_conv"
  type: "Convolution"
  bottom: "inception_4e/output"
  top: "CAM_conv"
  param {
    lr_mult: 1
    decay_mult: 1
  }
  param {
    lr_mult: 2
    decay_mult: 0
  }
  convolution_param {
    num_output: 1024
    pad: 1
    kernel_size: 3
    group: 2
    weight_filler {
      type: "gaussian"
      std: 0.01
    }
    bias_filler {
      type: "constant"
      value: 1
    }
  }
}
layer {
  name: "CAM_relu"
  type: "ReLU"
  bottom: "CAM_conv"
  top: "CAM_conv"
}
layer {
  name: "CAM_pool"
  type: "Pooling"
  bottom: "CAM_conv"
  top: "CAM_pool"
  pooling_param {
    pool: AVE
    kernel_size: 14
    stride: 14
  }
}
layer {
  name: "myCAM_fc"
  type: "InnerProduct"
  bottom: "CAM_pool"
  top: "myCAM_fc"
  param {
    lr_mult: 1
    decay_mult: 1
  }
  param {
    lr_mult: 2
    decay_mult: 0
  }
  inner_product_param {
    num_output: 5
    weight_filler {
      type: "xavier"
    }
    bias_filler {
      type: "constant"
      value: 0
    }
  }
}
layer {
  name: "prob"
  type: "Softmax"
  bottom: "myCAM_fc"
  top: "prob"
}
I0527 15:12:12.497175  6105 net.cpp:437] Input 0 -> data
I0527 15:12:12.497208  6105 layer_factory.hpp:74] Creating layer conv1/7x7_s2
I0527 15:12:12.497218  6105 net.cpp:99] Creating Layer conv1/7x7_s2
I0527 15:12:12.497223  6105 net.cpp:479] conv1/7x7_s2 <- data
I0527 15:12:12.497231  6105 net.cpp:435] conv1/7x7_s2 -> conv1/7x7_s2
I0527 15:12:12.497239  6105 net.cpp:163] Setting up conv1/7x7_s2
WARNING: Logging before InitGoogleLogging() is written to STDERR
I0527 15:12:12.596534  6108 net.cpp:46] Initializing net from parameters: 
name: "GoogleNet"
input: "data"
input_dim: 10
input_dim: 3
input_dim: 224
input_dim: 224
force_backward: true
state {
  phase: TEST
}
layer {
  name: "conv1/7x7_s2"
  type: "Convolution"
  bottom: "data"
  top: "conv1/7x7_s2"
  param {
    lr_mult: 1
    decay_mult: 1
  }
  param {
    lr_mult: 2
    decay_mult: 0
  }
  convolution_param {
    num_output: 64
    pad: 3
    kernel_size: 7
    stride: 2
    weight_filler {
      type: "xavier"
      std: 0.1
    }
    bias_filler {
      type: "constant"
      value: 0.2
    }
  }
}
layer {
  name: "conv1/relu_7x7"
  type: "ReLU"
  bottom: "conv1/7x7_s2"
  top: "conv1/7x7_s2"
}
layer {
  name: "pool1/3x3_s2"
  type: "Pooling"
  bottom: "conv1/7x7_s2"
  top: "pool1/3x3_s2"
  pooling_param {
    pool: MAX
    kernel_size: 3
    stride: 2
  }
}
layer {
  name: "pool1/norm1"
  type: "LRN"
  bottom: "pool1/3x3_s2"
  top: "pool1/norm1"
  lrn_param {
    local_size: 5
    alpha: 0.0001
    beta: 0.75
  }
}
layer {
  name: "conv2/3x3_reduce"
  type: "Convolution"
  bottom: "pool1/norm1"
  top: "conv2/3x3_reduce"
  param {
    lr_mult: 1
    decay_mult: 1
  }
  param {
    lr_mult: 2
    decay_mult: 0
  }
  convolution_param {
    num_output: 64
    kernel_size: 1
    weight_filler {
      type: "xavier"
      std: 0.1
    }
    bias_filler {
      type: "constant"
      value: 0.2
    }
  }
}
layer {
  name: "conv2/relu_3x3_reduce"
  type: "ReLU"
  bottom: "conv2/3x3_reduce"
  top: "conv2/3x3_reduce"
}
layer {
  name: "conv2/3x3"
  type: "Convolution"
  bottom: "conv2/3x3_reduce"
  top: "conv2/3x3"
  param {
    lr_mult: 1
    decay_mult: 1
  }
  param {
    lr_mult: 2
    decay_mult: 0
  }
  convolution_param {
    num_output: 192
    pad: 1
    kernel_size: 3
    weight_filler {
      type: "xavier"
      std: 0.03
    }
    bias_filler {
      type: "constant"
      value: 0.2
    }
  }
}
layer {
  name: "conv2/relu_3x3"
  type: "ReLU"
  bottom: "conv2/3x3"
  top: "conv2/3x3"
}
layer {
  name: "conv2/norm2"
  type: "LRN"
  bottom: "conv2/3x3"
  top: "conv2/norm2"
  lrn_param {
    local_size: 5
    alpha: 0.0001
    beta: 0.75
  }
}
layer {
  name: "pool2/3x3_s2"
  type: "Pooling"
  bottom: "conv2/norm2"
  top: "pool2/3x3_s2"
  pooling_param {
    pool: MAX
    kernel_size: 3
    stride: 2
  }
}
layer {
  name: "inception_3a/1x1"
  type: "Convolution"
  bottom: "pool2/3x3_s2"
  top: "inception_3a/1x1"
  param {
    lr_mult: 1
    decay_mult: 1
  }
  param {
    lr_mult: 2
    decay_mult: 0
  }
  convolution_param {
    num_output: 64
    kernel_size: 1
    weight_filler {
      type: "xavier"
      std: 0.03
    }
    bias_filler {
      type: "constant"
      value: 0.2
    }
  }
}
layer {
  name: "inception_3a/relu_1x1"
  type: "ReLU"
  bottom: "inception_3a/1x1"
  top: "inception_3a/1x1"
}
layer {
  name: "inception_3a/3x3_reduce"
  type: "Convolution"
  bottom: "pool2/3x3_s2"
  top: "inception_3a/3x3_reduce"
  param {
    lr_mult: 1
    decay_mult: 1
  }
  param {
    lr_mult: 2
    decay_mult: 0
  }
  convolution_param {
    num_output: 96
    kernel_size: 1
    weight_filler {
      type: "xavier"
      std: 0.09
    }
    bias_filler {
      type: "constant"
      value: 0.2
    }
  }
}
layer {
  name: "inception_3a/relu_3x3_reduce"
  type: "ReLU"
  bottom: "inception_3a/3x3_reduce"
  top: "inception_3a/3x3_reduce"
}
layer {
  name: "inception_3a/3x3"
  type: "Convolution"
  bottom: "inception_3a/3x3_reduce"
  top: "inception_3a/3x3"
  param {
    lr_mult: 1
    decay_mult: 1
  }
  param {
    lr_mult: 2
    decay_mult: 0
  }
  convolution_param {
    num_output: 128
    pad: 1
    kernel_size: 3
    weight_filler {
      type: "xavier"
      std: 0.03
    }
    bias_filler {
      type: "constant"
      value: 0.2
    }
  }
}
layer {
  name: "inception_3a/relu_3x3"
  type: "ReLU"
  bottom: "inception_3a/3x3"
  top: "inception_3a/3x3"
}
layer {
  name: "inception_3a/5x5_reduce"
  type: "Convolution"
  bottom: "pool2/3x3_s2"
  top: "inception_3a/5x5_reduce"
  param {
    lr_mult: 1
    decay_mult: 1
  }
  param {
    lr_mult: 2
    decay_mult: 0
  }
  convolution_param {
    num_output: 16
    kernel_size: 1
    weight_filler {
      type: "xavier"
      std: 0.2
    }
    bias_filler {
      type: "constant"
      value: 0.2
    }
  }
}
layer {
  name: "inception_3a/relu_5x5_reduce"
  type: "ReLU"
  bottom: "inception_3a/5x5_reduce"
  top: "inception_3a/5x5_reduce"
}
layer {
  name: "inception_3a/5x5"
  type: "Convolution"
  bottom: "inception_3a/5x5_reduce"
  top: "inception_3a/5x5"
  param {
    lr_mult: 1
    decay_mult: 1
  }
  param {
    lr_mult: 2
    decay_mult: 0
  }
  convolution_param {
    num_output: 32
    pad: 2
    kernel_size: 5
    weight_filler {
      type: "xavier"
      std: 0.03
    }
    bias_filler {
      type: "constant"
      value: 0.2
    }
  }
}
layer {
  name: "inception_3a/relu_5x5"
  type: "ReLU"
  bottom: "inception_3a/5x5"
  top: "inception_3a/5x5"
}
layer {
  name: "inception_3a/pool"
  type: "Pooling"
  bottom: "pool2/3x3_s2"
  top: "inception_3a/pool"
  pooling_param {
    pool: MAX
    kernel_size: 3
    stride: 1
    pad: 1
  }
}
layer {
  name: "inception_3a/pool_proj"
  type: "Convolution"
  bottom: "inception_3a/pool"
  top: "inception_3a/pool_proj"
  param {
    lr_mult: 1
    decay_mult: 1
  }
  param {
    lr_mult: 2
    decay_mult: 0
  }
  convolution_param {
    num_output: 32
    kernel_size: 1
    weight_filler {
      type: "xavier"
      std: 0.1
    }
    bias_filler {
      type: "constant"
      value: 0.2
    }
  }
}
layer {
  name: "inception_3a/relu_pool_proj"
  type: "ReLU"
  bottom: "inception_3a/pool_proj"
  top: "inception_3a/pool_proj"
}
layer {
  name: "inception_3a/output"
  type: "Concat"
  bottom: "inception_3a/1x1"
  bottom: "inception_3a/3x3"
  bottom: "inception_3a/5x5"
  bottom: "inception_3a/pool_proj"
  top: "inception_3a/output"
}
layer {
  name: "inception_3b/1x1"
  type: "Convolution"
  bottom: "inception_3a/output"
  top: "inception_3b/1x1"
  param {
    lr_mult: 1
    decay_mult: 1
  }
  param {
    lr_mult: 2
    decay_mult: 0
  }
  convolution_param {
    num_output: 128
    kernel_size: 1
    weight_filler {
      type: "xavier"
      std: 0.03
    }
    bias_filler {
      type: "constant"
      value: 0.2
    }
  }
}
layer {
  name: "inception_3b/relu_1x1"
  type: "ReLU"
  bottom: "inception_3b/1x1"
  top: "inception_3b/1x1"
}
layer {
  name: "inception_3b/3x3_reduce"
  type: "Convolution"
  bottom: "inception_3a/output"
  top: "inception_3b/3x3_reduce"
  param {
    lr_mult: 1
    decay_mult: 1
  }
  param {
    lr_mult: 2
    decay_mult: 0
  }
  convolution_param {
    num_output: 128
    kernel_size: 1
    weight_filler {
      type: "xavier"
      std: 0.09
    }
    bias_filler {
      type: "constant"
      value: 0.2
    }
  }
}
layer {
  name: "inception_3b/relu_3x3_reduce"
  type: "ReLU"
  bottom: "inception_3b/3x3_reduce"
  top: "inception_3b/3x3_reduce"
}
layer {
  name: "inception_3b/3x3"
  type: "Convolution"
  bottom: "inception_3b/3x3_reduce"
  top: "inception_3b/3x3"
  param {
    lr_mult: 1
    decay_mult: 1
  }
  param {
    lr_mult: 2
    decay_mult: 0
  }
  convolution_param {
    num_output: 192
    pad: 1
    kernel_size: 3
    weight_filler {
      type: "xavier"
      std: 0.03
    }
    bias_filler {
      type: "constant"
      value: 0.2
    }
  }
}
layer {
  name: "inception_3b/relu_3x3"
  type: "ReLU"
  bottom: "inception_3b/3x3"
  top: "inception_3b/3x3"
}
layer {
  name: "inception_3b/5x5_reduce"
  type: "Convolution"
  bottom: "inception_3a/output"
  top: "inception_3b/5x5_reduce"
  param {
    lr_mult: 1
    decay_mult: 1
  }
  param {
    lr_mult: 2
    decay_mult: 0
  }
  convolution_param {
    num_output: 32
    kernel_size: 1
    weight_filler {
      type: "xavier"
      std: 0.2
    }
    bias_filler {
      type: "constant"
      value: 0.2
    }
  }
}
layer {
  name: "inception_3b/relu_5x5_reduce"
  type: "ReLU"
  bottom: "inception_3b/5x5_reduce"
  top: "inception_3b/5x5_reduce"
}
layer {
  name: "inception_3b/5x5"
  type: "Convolution"
  bottom: "inception_3b/5x5_reduce"
  top: "inception_3b/5x5"
  param {
    lr_mult: 1
    decay_mult: 1
  }
  param {
    lr_mult: 2
    decay_mult: 0
  }
  convolution_param {
    num_output: 96
    pad: 2
    kernel_size: 5
    weight_filler {
      type: "xavier"
      std: 0.03
    }
    bias_filler {
      type: "constant"
      value: 0.2
    }
  }
}
layer {
  name: "inception_3b/relu_5x5"
  type: "ReLU"
  bottom: "inception_3b/5x5"
  top: "inception_3b/5x5"
}
layer {
  name: "inception_3b/pool"
  type: "Pooling"
  bottom: "inception_3a/output"
  top: "inception_3b/pool"
  pooling_param {
    pool: MAX
    kernel_size: 3
    stride: 1
    pad: 1
  }
}
layer {
  name: "inception_3b/pool_proj"
  type: "Convolution"
  bottom: "inception_3b/pool"
  top: "inception_3b/pool_proj"
  param {
    lr_mult: 1
    decay_mult: 1
  }
  param {
    lr_mult: 2
    decay_mult: 0
  }
  convolution_param {
    num_output: 64
    kernel_size: 1
    weight_filler {
      type: "xavier"
      std: 0.1
    }
    bias_filler {
      type: "constant"
      value: 0.2
    }
  }
}
layer {
  name: "inception_3b/relu_pool_proj"
  type: "ReLU"
  bottom: "inception_3b/pool_proj"
  top: "inception_3b/pool_proj"
}
layer {
  name: "inception_3b/output"
  type: "Concat"
  bottom: "inception_3b/1x1"
  bottom: "inception_3b/3x3"
  bottom: "inception_3b/5x5"
  bottom: "inception_3b/pool_proj"
  top: "inception_3b/output"
}
layer {
  name: "pool3/3x3_s2"
  type: "Pooling"
  bottom: "inception_3b/output"
  top: "pool3/3x3_s2"
  pooling_param {
    pool: MAX
    kernel_size: 3
    stride: 2
  }
}
layer {
  name: "inception_4a/1x1"
  type: "Convolution"
  bottom: "pool3/3x3_s2"
  top: "inception_4a/1x1"
  param {
    lr_mult: 1
    decay_mult: 1
  }
  param {
    lr_mult: 2
    decay_mult: 0
  }
  convolution_param {
    num_output: 192
    kernel_size: 1
    weight_filler {
      type: "xavier"
      std: 0.03
    }
    bias_filler {
      type: "constant"
      value: 0.2
    }
  }
}
layer {
  name: "inception_4a/relu_1x1"
  type: "ReLU"
  bottom: "inception_4a/1x1"
  top: "inception_4a/1x1"
}
layer {
  name: "inception_4a/3x3_reduce"
  type: "Convolution"
  bottom: "pool3/3x3_s2"
  top: "inception_4a/3x3_reduce"
  param {
    lr_mult: 1
    decay_mult: 1
  }
  param {
    lr_mult: 2
    decay_mult: 0
  }
  convolution_param {
    num_output: 96
    kernel_size: 1
    weight_filler {
      type: "xavier"
      std: 0.09
    }
    bias_filler {
      type: "constant"
      value: 0.2
    }
  }
}
layer {
  name: "inception_4a/relu_3x3_reduce"
  type: "ReLU"
  bottom: "inception_4a/3x3_reduce"
  top: "inception_4a/3x3_reduce"
}
layer {
  name: "inception_4a/3x3"
  type: "Convolution"
  bottom: "inception_4a/3x3_reduce"
  top: "inception_4a/3x3"
  param {
    lr_mult: 1
    decay_mult: 1
  }
  param {
    lr_mult: 2
    decay_mult: 0
  }
  convolution_param {
    num_output: 208
    pad: 1
    kernel_size: 3
    weight_filler {
      type: "xavier"
      std: 0.03
    }
    bias_filler {
      type: "constant"
      value: 0.2
    }
  }
}
layer {
  name: "inception_4a/relu_3x3"
  type: "ReLU"
  bottom: "inception_4a/3x3"
  top: "inception_4a/3x3"
}
layer {
  name: "inception_4a/5x5_reduce"
  type: "Convolution"
  bottom: "pool3/3x3_s2"
  top: "inception_4a/5x5_reduce"
  param {
    lr_mult: 1
    decay_mult: 1
  }
  param {
    lr_mult: 2
    decay_mult: 0
  }
  convolution_param {
    num_output: 16
    kernel_size: 1
    weight_filler {
      type: "xavier"
      std: 0.2
    }
    bias_filler {
      type: "constant"
      value: 0.2
    }
  }
}
layer {
  name: "inception_4a/relu_5x5_reduce"
  type: "ReLU"
  bottom: "inception_4a/5x5_reduce"
  top: "inception_4a/5x5_reduce"
}
layer {
  name: "inception_4a/5x5"
  type: "Convolution"
  bottom: "inception_4a/5x5_reduce"
  top: "inception_4a/5x5"
  param {
    lr_mult: 1
    decay_mult: 1
  }
  param {
    lr_mult: 2
    decay_mult: 0
  }
  convolution_param {
    num_output: 48
    pad: 2
    kernel_size: 5
    weight_filler {
      type: "xavier"
      std: 0.03
    }
    bias_filler {
      type: "constant"
      value: 0.2
    }
  }
}
layer {
  name: "inception_4a/relu_5x5"
  type: "ReLU"
  bottom: "inception_4a/5x5"
  top: "inception_4a/5x5"
}
layer {
  name: "inception_4a/pool"
  type: "Pooling"
  bottom: "pool3/3x3_s2"
  top: "inception_4a/pool"
  pooling_param {
    pool: MAX
    kernel_size: 3
    stride: 1
    pad: 1
  }
}
layer {
  name: "inception_4a/pool_proj"
  type: "Convolution"
  bottom: "inception_4a/pool"
  top: "inception_4a/pool_proj"
  param {
    lr_mult: 1
    decay_mult: 1
  }
  param {
    lr_mult: 2
    decay_mult: 0
  }
  convolution_param {
    num_output: 64
    kernel_size: 1
    weight_filler {
      type: "xavier"
      std: 0.1
    }
    bias_filler {
      type: "constant"
      value: 0.2
    }
  }
}
layer {
  name: "inception_4a/relu_pool_proj"
  type: "ReLU"
  bottom: "inception_4a/pool_proj"
  top: "inception_4a/pool_proj"
}
layer {
  name: "inception_4a/output"
  type: "Concat"
  bottom: "inception_4a/1x1"
  bottom: "inception_4a/3x3"
  bottom: "inception_4a/5x5"
  bottom: "inception_4a/pool_proj"
  top: "inception_4a/output"
}
layer {
  name: "inception_4b/1x1"
  type: "Convolution"
  bottom: "inception_4a/output"
  top: "inception_4b/1x1"
  param {
    lr_mult: 1
    decay_mult: 1
  }
  param {
    lr_mult: 2
    decay_mult: 0
  }
  convolution_param {
    num_output: 160
    kernel_size: 1
    weight_filler {
      type: "xavier"
      std: 0.03
    }
    bias_filler {
      type: "constant"
      value: 0.2
    }
  }
}
layer {
  name: "inception_4b/relu_1x1"
  type: "ReLU"
  bottom: "inception_4b/1x1"
  top: "inception_4b/1x1"
}
layer {
  name: "inception_4b/3x3_reduce"
  type: "Convolution"
  bottom: "inception_4a/output"
  top: "inception_4b/3x3_reduce"
  param {
    lr_mult: 1
    decay_mult: 1
  }
  param {
    lr_mult: 2
    decay_mult: 0
  }
  convolution_param {
    num_output: 112
    kernel_size: 1
    weight_filler {
      type: "xavier"
      std: 0.09
    }
    bias_filler {
      type: "constant"
      value: 0.2
    }
  }
}
layer {
  name: "inception_4b/relu_3x3_reduce"
  type: "ReLU"
  bottom: "inception_4b/3x3_reduce"
  top: "inception_4b/3x3_reduce"
}
layer {
  name: "inception_4b/3x3"
  type: "Convolution"
  bottom: "inception_4b/3x3_reduce"
  top: "inception_4b/3x3"
  param {
    lr_mult: 1
    decay_mult: 1
  }
  param {
    lr_mult: 2
    decay_mult: 0
  }
  convolution_param {
    num_output: 224
    pad: 1
    kernel_size: 3
    weight_filler {
      type: "xavier"
      std: 0.03
    }
    bias_filler {
      type: "constant"
      value: 0.2
    }
  }
}
layer {
  name: "inception_4b/relu_3x3"
  type: "ReLU"
  bottom: "inception_4b/3x3"
  top: "inception_4b/3x3"
}
layer {
  name: "inception_4b/5x5_reduce"
  type: "Convolution"
  bottom: "inception_4a/output"
  top: "inception_4b/5x5_reduce"
  param {
    lr_mult: 1
    decay_mult: 1
  }
  param {
    lr_mult: 2
    decay_mult: 0
  }
  convolution_param {
    num_output: 24
    kernel_size: 1
    weight_filler {
      type: "xavier"
      std: 0.2
    }
    bias_filler {
      type: "constant"
      value: 0.2
    }
  }
}
layer {
  name: "inception_4b/relu_5x5_reduce"
  type: "ReLU"
  bottom: "inception_4b/5x5_reduce"
  top: "inception_4b/5x5_reduce"
}
layer {
  name: "inception_4b/5x5"
  type: "Convolution"
  bottom: "inception_4b/5x5_reduce"
  top: "inception_4b/5x5"
  param {
    lr_mult: 1
    decay_mult: 1
  }
  param {
    lr_mult: 2
    decay_mult: 0
  }
  convolution_param {
    num_output: 64
    pad: 2
    kernel_size: 5
    weight_filler {
      type: "xavier"
      std: 0.03
    }
    bias_filler {
      type: "constant"
      value: 0.2
    }
  }
}
layer {
  name: "inception_4b/relu_5x5"
  type: "ReLU"
  bottom: "inception_4b/5x5"
  top: "inception_4b/5x5"
}
layer {
  name: "inception_4b/pool"
  type: "Pooling"
  bottom: "inception_4a/output"
  top: "inception_4b/pool"
  pooling_param {
    pool: MAX
    kernel_size: 3
    stride: 1
    pad: 1
  }
}
layer {
  name: "inception_4b/pool_proj"
  type: "Convolution"
  bottom: "inception_4b/pool"
  top: "inception_4b/pool_proj"
  param {
    lr_mult: 1
    decay_mult: 1
  }
  param {
    lr_mult: 2
    decay_mult: 0
  }
  convolution_param {
    num_output: 64
    kernel_size: 1
    weight_filler {
      type: "xavier"
      std: 0.1
    }
    bias_filler {
      type: "constant"
      value: 0.2
    }
  }
}
layer {
  name: "inception_4b/relu_pool_proj"
  type: "ReLU"
  bottom: "inception_4b/pool_proj"
  top: "inception_4b/pool_proj"
}
layer {
  name: "inception_4b/output"
  type: "Concat"
  bottom: "inception_4b/1x1"
  bottom: "inception_4b/3x3"
  bottom: "inception_4b/5x5"
  bottom: "inception_4b/pool_proj"
  top: "inception_4b/output"
}
layer {
  name: "inception_4c/1x1"
  type: "Convolution"
  bottom: "inception_4b/output"
  top: "inception_4c/1x1"
  param {
    lr_mult: 1
    decay_mult: 1
  }
  param {
    lr_mult: 2
    decay_mult: 0
  }
  convolution_param {
    num_output: 128
    kernel_size: 1
    weight_filler {
      type: "xavier"
      std: 0.03
    }
    bias_filler {
      type: "constant"
      value: 0.2
    }
  }
}
layer {
  name: "inception_4c/relu_1x1"
  type: "ReLU"
  bottom: "inception_4c/1x1"
  top: "inception_4c/1x1"
}
layer {
  name: "inception_4c/3x3_reduce"
  type: "Convolution"
  bottom: "inception_4b/output"
  top: "inception_4c/3x3_reduce"
  param {
    lr_mult: 1
    decay_mult: 1
  }
  param {
    lr_mult: 2
    decay_mult: 0
  }
  convolution_param {
    num_output: 128
    kernel_size: 1
    weight_filler {
      type: "xavier"
      std: 0.09
    }
    bias_filler {
      type: "constant"
      value: 0.2
    }
  }
}
layer {
  name: "inception_4c/relu_3x3_reduce"
  type: "ReLU"
  bottom: "inception_4c/3x3_reduce"
  top: "inception_4c/3x3_reduce"
}
layer {
  name: "inception_4c/3x3"
  type: "Convolution"
  bottom: "inception_4c/3x3_reduce"
  top: "inception_4c/3x3"
  param {
    lr_mult: 1
    decay_mult: 1
  }
  param {
    lr_mult: 2
    decay_mult: 0
  }
  convolution_param {
    num_output: 256
    pad: 1
    kernel_size: 3
    weight_filler {
      type: "xavier"
      std: 0.03
    }
    bias_filler {
      type: "constant"
      value: 0.2
    }
  }
}
layer {
  name: "inception_4c/relu_3x3"
  type: "ReLU"
  bottom: "inception_4c/3x3"
  top: "inception_4c/3x3"
}
layer {
  name: "inception_4c/5x5_reduce"
  type: "Convolution"
  bottom: "inception_4b/output"
  top: "inception_4c/5x5_reduce"
  param {
    lr_mult: 1
    decay_mult: 1
  }
  param {
    lr_mult: 2
    decay_mult: 0
  }
  convolution_param {
    num_output: 24
    kernel_size: 1
    weight_filler {
      type: "xavier"
      std: 0.2
    }
    bias_filler {
      type: "constant"
      value: 0.2
    }
  }
}
layer {
  name: "inception_4c/relu_5x5_reduce"
  type: "ReLU"
  bottom: "inception_4c/5x5_reduce"
  top: "inception_4c/5x5_reduce"
}
layer {
  name: "inception_4c/5x5"
  type: "Convolution"
  bottom: "inception_4c/5x5_reduce"
  top: "inception_4c/5x5"
  param {
    lr_mult: 1
    decay_mult: 1
  }
  param {
    lr_mult: 2
    decay_mult: 0
  }
  convolution_param {
    num_output: 64
    pad: 2
    kernel_size: 5
    weight_filler {
      type: "xavier"
      std: 0.03
    }
    bias_filler {
      type: "constant"
      value: 0.2
    }
  }
}
layer {
  name: "inception_4c/relu_5x5"
  type: "ReLU"
  bottom: "inception_4c/5x5"
  top: "inception_4c/5x5"
}
layer {
  name: "inception_4c/pool"
  type: "Pooling"
  bottom: "inception_4b/output"
  top: "inception_4c/pool"
  pooling_param {
    pool: MAX
    kernel_size: 3
    stride: 1
    pad: 1
  }
}
layer {
  name: "inception_4c/pool_proj"
  type: "Convolution"
  bottom: "inception_4c/pool"
  top: "inception_4c/pool_proj"
  param {
    lr_mult: 1
    decay_mult: 1
  }
  param {
    lr_mult: 2
    decay_mult: 0
  }
  convolution_param {
    num_output: 64
    kernel_size: 1
    weight_filler {
      type: "xavier"
      std: 0.1
    }
    bias_filler {
      type: "constant"
      value: 0.2
    }
  }
}
layer {
  name: "inception_4c/relu_pool_proj"
  type: "ReLU"
  bottom: "inception_4c/pool_proj"
  top: "inception_4c/pool_proj"
}
layer {
  name: "inception_4c/output"
  type: "Concat"
  bottom: "inception_4c/1x1"
  bottom: "inception_4c/3x3"
  bottom: "inception_4c/5x5"
  bottom: "inception_4c/pool_proj"
  top: "inception_4c/output"
}
layer {
  name: "inception_4d/1x1"
  type: "Convolution"
  bottom: "inception_4c/output"
  top: "inception_4d/1x1"
  param {
    lr_mult: 1
    decay_mult: 1
  }
  param {
    lr_mult: 2
    decay_mult: 0
  }
  convolution_param {
    num_output: 112
    kernel_size: 1
    weight_filler {
      type: "xavier"
      std: 0.03
    }
    bias_filler {
      type: "constant"
      value: 0.2
    }
  }
}
layer {
  name: "inception_4d/relu_1x1"
  type: "ReLU"
  bottom: "inception_4d/1x1"
  top: "inception_4d/1x1"
}
layer {
  name: "inception_4d/3x3_reduce"
  type: "Convolution"
  bottom: "inception_4c/output"
  top: "inception_4d/3x3_reduce"
  param {
    lr_mult: 1
    decay_mult: 1
  }
  param {
    lr_mult: 2
    decay_mult: 0
  }
  convolution_param {
    num_output: 144
    kernel_size: 1
    weight_filler {
      type: "xavier"
      std: 0.09
    }
    bias_filler {
      type: "constant"
      value: 0.2
    }
  }
}
layer {
  name: "inception_4d/relu_3x3_reduce"
  type: "ReLU"
  bottom: "inception_4d/3x3_reduce"
  top: "inception_4d/3x3_reduce"
}
layer {
  name: "inception_4d/3x3"
  type: "Convolution"
  bottom: "inception_4d/3x3_reduce"
  top: "inception_4d/3x3"
  param {
    lr_mult: 1
    decay_mult: 1
  }
  param {
    lr_mult: 2
    decay_mult: 0
  }
  convolution_param {
    num_output: 288
    pad: 1
    kernel_size: 3
    weight_filler {
      type: "xavier"
      std: 0.03
    }
    bias_filler {
      type: "constant"
      value: 0.2
    }
  }
}
layer {
  name: "inception_4d/relu_3x3"
  type: "ReLU"
  bottom: "inception_4d/3x3"
  top: "inception_4d/3x3"
}
layer {
  name: "inception_4d/5x5_reduce"
  type: "Convolution"
  bottom: "inception_4c/output"
  top: "inception_4d/5x5_reduce"
  param {
    lr_mult: 1
    decay_mult: 1
  }
  param {
    lr_mult: 2
    decay_mult: 0
  }
  convolution_param {
    num_output: 32
    kernel_size: 1
    weight_filler {
      type: "xavier"
      std: 0.2
    }
    bias_filler {
      type: "constant"
      value: 0.2
    }
  }
}
layer {
  name: "inception_4d/relu_5x5_reduce"
  type: "ReLU"
  bottom: "inception_4d/5x5_reduce"
  top: "inception_4d/5x5_reduce"
}
layer {
  name: "inception_4d/5x5"
  type: "Convolution"
  bottom: "inception_4d/5x5_reduce"
  top: "inception_4d/5x5"
  param {
    lr_mult: 1
    decay_mult: 1
  }
  param {
    lr_mult: 2
    decay_mult: 0
  }
  convolution_param {
    num_output: 64
    pad: 2
    kernel_size: 5
    weight_filler {
      type: "xavier"
      std: 0.03
    }
    bias_filler {
      type: "constant"
      value: 0.2
    }
  }
}
layer {
  name: "inception_4d/relu_5x5"
  type: "ReLU"
  bottom: "inception_4d/5x5"
  top: "inception_4d/5x5"
}
layer {
  name: "inception_4d/pool"
  type: "Pooling"
  bottom: "inception_4c/output"
  top: "inception_4d/pool"
  pooling_param {
    pool: MAX
    kernel_size: 3
    stride: 1
    pad: 1
  }
}
layer {
  name: "inception_4d/pool_proj"
  type: "Convolution"
  bottom: "inception_4d/pool"
  top: "inception_4d/pool_proj"
  param {
    lr_mult: 1
    decay_mult: 1
  }
  param {
    lr_mult: 2
    decay_mult: 0
  }
  convolution_param {
    num_output: 64
    kernel_size: 1
    weight_filler {
      type: "xavier"
      std: 0.1
    }
    bias_filler {
      type: "constant"
      value: 0.2
    }
  }
}
layer {
  name: "inception_4d/relu_pool_proj"
  type: "ReLU"
  bottom: "inception_4d/pool_proj"
  top: "inception_4d/pool_proj"
}
layer {
  name: "inception_4d/output"
  type: "Concat"
  bottom: "inception_4d/1x1"
  bottom: "inception_4d/3x3"
  bottom: "inception_4d/5x5"
  bottom: "inception_4d/pool_proj"
  top: "inception_4d/output"
}
layer {
  name: "inception_4e/1x1"
  type: "Convolution"
  bottom: "inception_4d/output"
  top: "inception_4e/1x1"
  param {
    lr_mult: 1
    decay_mult: 1
  }
  param {
    lr_mult: 2
    decay_mult: 0
  }
  convolution_param {
    num_output: 256
    kernel_size: 1
    weight_filler {
      type: "xavier"
      std: 0.03
    }
    bias_filler {
      type: "constant"
      value: 0.2
    }
  }
}
layer {
  name: "inception_4e/relu_1x1"
  type: "ReLU"
  bottom: "inception_4e/1x1"
  top: "inception_4e/1x1"
}
layer {
  name: "inception_4e/3x3_reduce"
  type: "Convolution"
  bottom: "inception_4d/output"
  top: "inception_4e/3x3_reduce"
  param {
    lr_mult: 1
    decay_mult: 1
  }
  param {
    lr_mult: 2
    decay_mult: 0
  }
  convolution_param {
    num_output: 160
    kernel_size: 1
    weight_filler {
      type: "xavier"
      std: 0.09
    }
    bias_filler {
      type: "constant"
      value: 0.2
    }
  }
}
layer {
  name: "inception_4e/relu_3x3_reduce"
  type: "ReLU"
  bottom: "inception_4e/3x3_reduce"
  top: "inception_4e/3x3_reduce"
}
layer {
  name: "inception_4e/3x3"
  type: "Convolution"
  bottom: "inception_4e/3x3_reduce"
  top: "inception_4e/3x3"
  param {
    lr_mult: 1
    decay_mult: 1
  }
  param {
    lr_mult: 2
    decay_mult: 0
  }
  convolution_param {
    num_output: 320
    pad: 1
    kernel_size: 3
    weight_filler {
      type: "xavier"
      std: 0.03
    }
    bias_filler {
      type: "constant"
      value: 0.2
    }
  }
}
layer {
  name: "inception_4e/relu_3x3"
  type: "ReLU"
  bottom: "inception_4e/3x3"
  top: "inception_4e/3x3"
}
layer {
  name: "inception_4e/5x5_reduce"
  type: "Convolution"
  bottom: "inception_4d/output"
  top: "inception_4e/5x5_reduce"
  param {
    lr_mult: 1
    decay_mult: 1
  }
  param {
    lr_mult: 2
    decay_mult: 0
  }
  convolution_param {
    num_output: 32
    kernel_size: 1
    weight_filler {
      type: "xavier"
      std: 0.2
    }
    bias_filler {
      type: "constant"
      value: 0.2
    }
  }
}
layer {
  name: "inception_4e/relu_5x5_reduce"
  type: "ReLU"
  bottom: "inception_4e/5x5_reduce"
  top: "inception_4e/5x5_reduce"
}
layer {
  name: "inception_4e/5x5"
  type: "Convolution"
  bottom: "inception_4e/5x5_reduce"
  top: "inception_4e/5x5"
  param {
    lr_mult: 1
    decay_mult: 1
  }
  param {
    lr_mult: 2
    decay_mult: 0
  }
  convolution_param {
    num_output: 128
    pad: 2
    kernel_size: 5
    weight_filler {
      type: "xavier"
      std: 0.03
    }
    bias_filler {
      type: "constant"
      value: 0.2
    }
  }
}
layer {
  name: "inception_4e/relu_5x5"
  type: "ReLU"
  bottom: "inception_4e/5x5"
  top: "inception_4e/5x5"
}
layer {
  name: "inception_4e/pool"
  type: "Pooling"
  bottom: "inception_4d/output"
  top: "inception_4e/pool"
  pooling_param {
    pool: MAX
    kernel_size: 3
    stride: 1
    pad: 1
  }
}
layer {
  name: "inception_4e/pool_proj"
  type: "Convolution"
  bottom: "inception_4e/pool"
  top: "inception_4e/pool_proj"
  param {
    lr_mult: 1
    decay_mult: 1
  }
  param {
    lr_mult: 2
    decay_mult: 0
  }
  convolution_param {
    num_output: 128
    kernel_size: 1
    weight_filler {
      type: "xavier"
      std: 0.1
    }
    bias_filler {
      type: "constant"
      value: 0.2
    }
  }
}
layer {
  name: "inception_4e/relu_pool_proj"
  type: "ReLU"
  bottom: "inception_4e/pool_proj"
  top: "inception_4e/pool_proj"
}
layer {
  name: "inception_4e/output"
  type: "Concat"
  bottom: "inception_4e/1x1"
  bottom: "inception_4e/3x3"
  bottom: "inception_4e/5x5"
  bottom: "inception_4e/pool_proj"
  top: "inception_4e/output"
}
layer {
  name: "CAM_conv"
  type: "Convolution"
  bottom: "inception_4e/output"
  top: "CAM_conv"
  param {
    lr_mult: 1
    decay_mult: 1
  }
  param {
    lr_mult: 2
    decay_mult: 0
  }
  convolution_param {
    num_output: 1024
    pad: 1
    kernel_size: 3
    group: 2
    weight_filler {
      type: "gaussian"
      std: 0.01
    }
    bias_filler {
      type: "constant"
      value: 1
    }
  }
}
layer {
  name: "CAM_relu"
  type: "ReLU"
  bottom: "CAM_conv"
  top: "CAM_conv"
}
layer {
  name: "CAM_pool"
  type: "Pooling"
  bottom: "CAM_conv"
  top: "CAM_pool"
  pooling_param {
    pool: AVE
    kernel_size: 14
    stride: 14
  }
}
layer {
  name: "myCAM_fc"
  type: "InnerProduct"
  bottom: "CAM_pool"
  top: "myCAM_fc"
  param {
    lr_mult: 1
    decay_mult: 1
  }
  param {
    lr_mult: 2
    decay_mult: 0
  }
  inner_product_param {
    num_output: 5
    weight_filler {
      type: "xavier"
    }
    bias_filler {
      type: "constant"
      value: 0
    }
  }
}
layer {
  name: "prob"
  type: "Softmax"
  bottom: "myCAM_fc"
  top: "prob"
}
I0527 15:12:12.597064  6108 net.cpp:437] Input 0 -> data
I0527 15:12:12.597105  6108 layer_factory.hpp:74] Creating layer conv1/7x7_s2
I0527 15:12:12.597117  6108 net.cpp:99] Creating Layer conv1/7x7_s2
I0527 15:12:12.597122  6108 net.cpp:479] conv1/7x7_s2 <- data
I0527 15:12:12.597131  6108 net.cpp:435] conv1/7x7_s2 -> conv1/7x7_s2
I0527 15:12:12.597141  6108 net.cpp:163] Setting up conv1/7x7_s2
I0527 15:12:14.974253  6106 net.cpp:170] Top shape: 10 64 112 112 (8028160)
I0527 15:12:14.974323  6106 layer_factory.hpp:74] Creating layer conv1/relu_7x7
I0527 15:12:14.974340  6106 net.cpp:99] Creating Layer conv1/relu_7x7
I0527 15:12:14.974345  6106 net.cpp:479] conv1/relu_7x7 <- conv1/7x7_s2
I0527 15:12:14.974352  6106 net.cpp:130] This layer is inheriting previous layer's sync mode: 1
I0527 15:12:14.974357  6106 net.cpp:424] conv1/relu_7x7 -> conv1/7x7_s2 (in-place)
I0527 15:12:14.974365  6106 net.cpp:163] Setting up conv1/relu_7x7
I0527 15:12:14.974556  6106 net.cpp:170] Top shape: 10 64 112 112 (8028160)
I0527 15:12:14.974565  6106 layer_factory.hpp:74] Creating layer pool1/3x3_s2
I0527 15:12:14.974573  6106 net.cpp:99] Creating Layer pool1/3x3_s2
I0527 15:12:14.974578  6106 net.cpp:479] pool1/3x3_s2 <- conv1/7x7_s2
I0527 15:12:14.974582  6106 net.cpp:130] This layer is inheriting previous layer's sync mode: 1
I0527 15:12:14.974587  6106 net.cpp:435] pool1/3x3_s2 -> pool1/3x3_s2
I0527 15:12:14.974604  6106 net.cpp:163] Setting up pool1/3x3_s2
I0527 15:12:14.974788  6106 net.cpp:170] Top shape: 10 64 56 56 (2007040)
I0527 15:12:14.974797  6106 layer_factory.hpp:74] Creating layer pool1/norm1
I0527 15:12:14.974804  6106 net.cpp:99] Creating Layer pool1/norm1
I0527 15:12:14.974807  6106 net.cpp:479] pool1/norm1 <- pool1/3x3_s2
I0527 15:12:14.974812  6106 net.cpp:130] This layer is inheriting previous layer's sync mode: 1
I0527 15:12:14.974820  6106 net.cpp:435] pool1/norm1 -> pool1/norm1
I0527 15:12:14.974825  6106 net.cpp:163] Setting up pool1/norm1
I0527 15:12:14.974833  6106 net.cpp:170] Top shape: 10 64 56 56 (2007040)
I0527 15:12:14.974836  6106 layer_factory.hpp:74] Creating layer conv2/3x3_reduce
I0527 15:12:14.974848  6106 net.cpp:99] Creating Layer conv2/3x3_reduce
I0527 15:12:14.974851  6106 net.cpp:479] conv2/3x3_reduce <- pool1/norm1
I0527 15:12:14.974856  6106 net.cpp:130] This layer is inheriting previous layer's sync mode: 1
I0527 15:12:14.974862  6106 net.cpp:435] conv2/3x3_reduce -> conv2/3x3_reduce
I0527 15:12:14.974870  6106 net.cpp:163] Setting up conv2/3x3_reduce
I0527 15:12:15.008734  6106 net.cpp:170] Top shape: 10 64 56 56 (2007040)
I0527 15:12:15.008774  6106 layer_factory.hpp:74] Creating layer conv2/relu_3x3_reduce
I0527 15:12:15.008796  6106 net.cpp:99] Creating Layer conv2/relu_3x3_reduce
I0527 15:12:15.008805  6106 net.cpp:479] conv2/relu_3x3_reduce <- conv2/3x3_reduce
I0527 15:12:15.008821  6106 net.cpp:130] This layer is inheriting previous layer's sync mode: 1
I0527 15:12:15.008832  6106 net.cpp:424] conv2/relu_3x3_reduce -> conv2/3x3_reduce (in-place)
I0527 15:12:15.008848  6106 net.cpp:163] Setting up conv2/relu_3x3_reduce
I0527 15:12:15.010004  6106 net.cpp:170] Top shape: 10 64 56 56 (2007040)
I0527 15:12:15.010027  6106 layer_factory.hpp:74] Creating layer conv2/3x3
I0527 15:12:15.010051  6106 net.cpp:99] Creating Layer conv2/3x3
I0527 15:12:15.010061  6106 net.cpp:479] conv2/3x3 <- conv2/3x3_reduce
I0527 15:12:15.010072  6106 net.cpp:130] This layer is inheriting previous layer's sync mode: 1
I0527 15:12:15.010088  6106 net.cpp:435] conv2/3x3 -> conv2/3x3
I0527 15:12:15.010105  6106 net.cpp:163] Setting up conv2/3x3
I0527 15:12:15.104261  6106 net.cpp:170] Top shape: 10 192 56 56 (6021120)
I0527 15:12:15.104305  6106 layer_factory.hpp:74] Creating layer conv2/relu_3x3
I0527 15:12:15.104320  6106 net.cpp:99] Creating Layer conv2/relu_3x3
I0527 15:12:15.104326  6106 net.cpp:479] conv2/relu_3x3 <- conv2/3x3
I0527 15:12:15.104333  6106 net.cpp:130] This layer is inheriting previous layer's sync mode: 1
I0527 15:12:15.104339  6106 net.cpp:424] conv2/relu_3x3 -> conv2/3x3 (in-place)
I0527 15:12:15.104349  6106 net.cpp:163] Setting up conv2/relu_3x3
I0527 15:12:15.104657  6106 net.cpp:170] Top shape: 10 192 56 56 (6021120)
I0527 15:12:15.104668  6106 layer_factory.hpp:74] Creating layer conv2/norm2
I0527 15:12:15.104681  6106 net.cpp:99] Creating Layer conv2/norm2
I0527 15:12:15.104684  6106 net.cpp:479] conv2/norm2 <- conv2/3x3
I0527 15:12:15.104691  6106 net.cpp:130] This layer is inheriting previous layer's sync mode: 1
I0527 15:12:15.104699  6106 net.cpp:435] conv2/norm2 -> conv2/norm2
I0527 15:12:15.104707  6106 net.cpp:163] Setting up conv2/norm2
I0527 15:12:15.104717  6106 net.cpp:170] Top shape: 10 192 56 56 (6021120)
I0527 15:12:15.104722  6106 layer_factory.hpp:74] Creating layer pool2/3x3_s2
I0527 15:12:15.104729  6106 net.cpp:99] Creating Layer pool2/3x3_s2
I0527 15:12:15.104734  6106 net.cpp:479] pool2/3x3_s2 <- conv2/norm2
I0527 15:12:15.104741  6106 net.cpp:130] This layer is inheriting previous layer's sync mode: 1
I0527 15:12:15.104746  6106 net.cpp:435] pool2/3x3_s2 -> pool2/3x3_s2
I0527 15:12:15.104753  6106 net.cpp:163] Setting up pool2/3x3_s2
I0527 15:12:15.104974  6106 net.cpp:170] Top shape: 10 192 28 28 (1505280)
I0527 15:12:15.104984  6106 layer_factory.hpp:74] Creating layer pool2/3x3_s2_pool2/3x3_s2_0_split
I0527 15:12:15.104998  6106 net.cpp:99] Creating Layer pool2/3x3_s2_pool2/3x3_s2_0_split
I0527 15:12:15.105005  6106 net.cpp:479] pool2/3x3_s2_pool2/3x3_s2_0_split <- pool2/3x3_s2
I0527 15:12:15.105017  6106 net.cpp:130] This layer is inheriting previous layer's sync mode: 1
I0527 15:12:15.105026  6106 net.cpp:435] pool2/3x3_s2_pool2/3x3_s2_0_split -> pool2/3x3_s2_pool2/3x3_s2_0_split_0
I0527 15:12:15.105036  6106 net.cpp:435] pool2/3x3_s2_pool2/3x3_s2_0_split -> pool2/3x3_s2_pool2/3x3_s2_0_split_1
I0527 15:12:15.105044  6106 net.cpp:435] pool2/3x3_s2_pool2/3x3_s2_0_split -> pool2/3x3_s2_pool2/3x3_s2_0_split_2
I0527 15:12:15.105053  6106 net.cpp:435] pool2/3x3_s2_pool2/3x3_s2_0_split -> pool2/3x3_s2_pool2/3x3_s2_0_split_3
I0527 15:12:15.105059  6106 net.cpp:163] Setting up pool2/3x3_s2_pool2/3x3_s2_0_split
I0527 15:12:15.105068  6106 net.cpp:170] Top shape: 10 192 28 28 (1505280)
I0527 15:12:15.105073  6106 net.cpp:170] Top shape: 10 192 28 28 (1505280)
I0527 15:12:15.105078  6106 net.cpp:170] Top shape: 10 192 28 28 (1505280)
I0527 15:12:15.105083  6106 net.cpp:170] Top shape: 10 192 28 28 (1505280)
I0527 15:12:15.105088  6106 layer_factory.hpp:74] Creating layer inception_3a/1x1
I0527 15:12:15.105100  6106 net.cpp:99] Creating Layer inception_3a/1x1
I0527 15:12:15.105105  6106 net.cpp:479] inception_3a/1x1 <- pool2/3x3_s2_pool2/3x3_s2_0_split_0
I0527 15:12:15.105110  6106 net.cpp:130] This layer is inheriting previous layer's sync mode: 1
I0527 15:12:15.105116  6106 net.cpp:435] inception_3a/1x1 -> inception_3a/1x1
I0527 15:12:15.105128  6106 net.cpp:163] Setting up inception_3a/1x1
I0527 15:12:15.132174  6106 net.cpp:170] Top shape: 10 64 28 28 (501760)
I0527 15:12:15.132210  6106 layer_factory.hpp:74] Creating layer inception_3a/relu_1x1
I0527 15:12:15.132223  6106 net.cpp:99] Creating Layer inception_3a/relu_1x1
I0527 15:12:15.132230  6106 net.cpp:479] inception_3a/relu_1x1 <- inception_3a/1x1
I0527 15:12:15.132236  6106 net.cpp:130] This layer is inheriting previous layer's sync mode: 1
I0527 15:12:15.132242  6106 net.cpp:424] inception_3a/relu_1x1 -> inception_3a/1x1 (in-place)
I0527 15:12:15.132251  6106 net.cpp:163] Setting up inception_3a/relu_1x1
I0527 15:12:15.132844  6106 net.cpp:170] Top shape: 10 64 28 28 (501760)
I0527 15:12:15.132856  6106 layer_factory.hpp:74] Creating layer inception_3a/3x3_reduce
I0527 15:12:15.132872  6106 net.cpp:99] Creating Layer inception_3a/3x3_reduce
I0527 15:12:15.132879  6106 net.cpp:479] inception_3a/3x3_reduce <- pool2/3x3_s2_pool2/3x3_s2_0_split_1
I0527 15:12:15.132884  6106 net.cpp:130] This layer is inheriting previous layer's sync mode: 1
I0527 15:12:15.132890  6106 net.cpp:435] inception_3a/3x3_reduce -> inception_3a/3x3_reduce
I0527 15:12:15.132900  6106 net.cpp:163] Setting up inception_3a/3x3_reduce
I0527 15:12:15.161485  6106 net.cpp:170] Top shape: 10 96 28 28 (752640)
I0527 15:12:15.161523  6106 layer_factory.hpp:74] Creating layer inception_3a/relu_3x3_reduce
I0527 15:12:15.161538  6106 net.cpp:99] Creating Layer inception_3a/relu_3x3_reduce
I0527 15:12:15.161545  6106 net.cpp:479] inception_3a/relu_3x3_reduce <- inception_3a/3x3_reduce
I0527 15:12:15.161551  6106 net.cpp:130] This layer is inheriting previous layer's sync mode: 1
I0527 15:12:15.161557  6106 net.cpp:424] inception_3a/relu_3x3_reduce -> inception_3a/3x3_reduce (in-place)
I0527 15:12:15.161566  6106 net.cpp:163] Setting up inception_3a/relu_3x3_reduce
I0527 15:12:15.161921  6106 net.cpp:170] Top shape: 10 96 28 28 (752640)
I0527 15:12:15.161938  6106 layer_factory.hpp:74] Creating layer inception_3a/3x3
I0527 15:12:15.161958  6106 net.cpp:99] Creating Layer inception_3a/3x3
I0527 15:12:15.161967  6106 net.cpp:479] inception_3a/3x3 <- inception_3a/3x3_reduce
I0527 15:12:15.161974  6106 net.cpp:130] This layer is inheriting previous layer's sync mode: 1
I0527 15:12:15.161984  6106 net.cpp:435] inception_3a/3x3 -> inception_3a/3x3
I0527 15:12:15.161998  6106 net.cpp:163] Setting up inception_3a/3x3
I0527 15:12:15.203977  6106 net.cpp:170] Top shape: 10 128 28 28 (1003520)
I0527 15:12:15.204015  6106 layer_factory.hpp:74] Creating layer inception_3a/relu_3x3
I0527 15:12:15.204035  6106 net.cpp:99] Creating Layer inception_3a/relu_3x3
I0527 15:12:15.204048  6106 net.cpp:479] inception_3a/relu_3x3 <- inception_3a/3x3
I0527 15:12:15.204056  6106 net.cpp:130] This layer is inheriting previous layer's sync mode: 1
I0527 15:12:15.204062  6106 net.cpp:424] inception_3a/relu_3x3 -> inception_3a/3x3 (in-place)
I0527 15:12:15.204071  6106 net.cpp:163] Setting up inception_3a/relu_3x3
I0527 15:12:15.204349  6106 net.cpp:170] Top shape: 10 128 28 28 (1003520)
I0527 15:12:15.204360  6106 layer_factory.hpp:74] Creating layer inception_3a/5x5_reduce
I0527 15:12:15.204378  6106 net.cpp:99] Creating Layer inception_3a/5x5_reduce
I0527 15:12:15.204383  6106 net.cpp:479] inception_3a/5x5_reduce <- pool2/3x3_s2_pool2/3x3_s2_0_split_2
I0527 15:12:15.204390  6106 net.cpp:130] This layer is inheriting previous layer's sync mode: 1
I0527 15:12:15.204398  6106 net.cpp:435] inception_3a/5x5_reduce -> inception_3a/5x5_reduce
I0527 15:12:15.204407  6106 net.cpp:163] Setting up inception_3a/5x5_reduce
I0527 15:12:15.218842  6106 net.cpp:170] Top shape: 10 16 28 28 (125440)
I0527 15:12:15.218873  6106 layer_factory.hpp:74] Creating layer inception_3a/relu_5x5_reduce
I0527 15:12:15.218883  6106 net.cpp:99] Creating Layer inception_3a/relu_5x5_reduce
I0527 15:12:15.218889  6106 net.cpp:479] inception_3a/relu_5x5_reduce <- inception_3a/5x5_reduce
I0527 15:12:15.218899  6106 net.cpp:130] This layer is inheriting previous layer's sync mode: 1
I0527 15:12:15.218905  6106 net.cpp:424] inception_3a/relu_5x5_reduce -> inception_3a/5x5_reduce (in-place)
I0527 15:12:15.218914  6106 net.cpp:163] Setting up inception_3a/relu_5x5_reduce
I0527 15:12:15.219149  6106 net.cpp:170] Top shape: 10 16 28 28 (125440)
I0527 15:12:15.219159  6106 layer_factory.hpp:74] Creating layer inception_3a/5x5
I0527 15:12:15.219172  6106 net.cpp:99] Creating Layer inception_3a/5x5
I0527 15:12:15.219177  6106 net.cpp:479] inception_3a/5x5 <- inception_3a/5x5_reduce
I0527 15:12:15.219182  6106 net.cpp:130] This layer is inheriting previous layer's sync mode: 1
I0527 15:12:15.219187  6106 net.cpp:435] inception_3a/5x5 -> inception_3a/5x5
I0527 15:12:15.219202  6106 net.cpp:163] Setting up inception_3a/5x5
I0527 15:12:15.242735  6106 net.cpp:170] Top shape: 10 32 28 28 (250880)
I0527 15:12:15.242792  6106 layer_factory.hpp:74] Creating layer inception_3a/relu_5x5
I0527 15:12:15.242816  6106 net.cpp:99] Creating Layer inception_3a/relu_5x5
I0527 15:12:15.242830  6106 net.cpp:479] inception_3a/relu_5x5 <- inception_3a/5x5
I0527 15:12:15.242842  6106 net.cpp:130] This layer is inheriting previous layer's sync mode: 1
I0527 15:12:15.242854  6106 net.cpp:424] inception_3a/relu_5x5 -> inception_3a/5x5 (in-place)
I0527 15:12:15.242871  6106 net.cpp:163] Setting up inception_3a/relu_5x5
I0527 15:12:15.244205  6106 net.cpp:170] Top shape: 10 32 28 28 (250880)
I0527 15:12:15.244235  6106 layer_factory.hpp:74] Creating layer inception_3a/pool
I0527 15:12:15.244248  6106 layer_factory.cpp:69] CUDNN does not support padding or multiple tops. Using Caffe's own pooling layer.
I0527 15:12:15.244263  6106 net.cpp:99] Creating Layer inception_3a/pool
I0527 15:12:15.244274  6106 net.cpp:479] inception_3a/pool <- pool2/3x3_s2_pool2/3x3_s2_0_split_3
I0527 15:12:15.244287  6106 net.cpp:130] This layer is inheriting previous layer's sync mode: 1
I0527 15:12:15.244303  6106 net.cpp:435] inception_3a/pool -> inception_3a/pool
I0527 15:12:15.244319  6106 net.cpp:163] Setting up inception_3a/pool
I0527 15:12:15.244339  6106 net.cpp:170] Top shape: 10 192 28 28 (1505280)
I0527 15:12:15.244349  6106 layer_factory.hpp:74] Creating layer inception_3a/pool_proj
I0527 15:12:15.244370  6106 net.cpp:99] Creating Layer inception_3a/pool_proj
I0527 15:12:15.244380  6106 net.cpp:479] inception_3a/pool_proj <- inception_3a/pool
I0527 15:12:15.244391  6106 net.cpp:130] This layer is inheriting previous layer's sync mode: 1
I0527 15:12:15.244408  6106 net.cpp:435] inception_3a/pool_proj -> inception_3a/pool_proj
I0527 15:12:15.244426  6106 net.cpp:163] Setting up inception_3a/pool_proj
I0527 15:12:15.269026  6107 net.cpp:170] Top shape: 10 64 112 112 (8028160)
I0527 15:12:15.269110  6107 layer_factory.hpp:74] Creating layer conv1/relu_7x7
I0527 15:12:15.269141  6107 net.cpp:99] Creating Layer conv1/relu_7x7
I0527 15:12:15.269151  6107 net.cpp:479] conv1/relu_7x7 <- conv1/7x7_s2
I0527 15:12:15.269166  6107 net.cpp:130] This layer is inheriting previous layer's sync mode: 1
I0527 15:12:15.269177  6107 net.cpp:424] conv1/relu_7x7 -> conv1/7x7_s2 (in-place)
I0527 15:12:15.269193  6107 net.cpp:163] Setting up conv1/relu_7x7
I0527 15:12:15.269691  6107 net.cpp:170] Top shape: 10 64 112 112 (8028160)
I0527 15:12:15.269708  6107 layer_factory.hpp:74] Creating layer pool1/3x3_s2
I0527 15:12:15.269728  6107 net.cpp:99] Creating Layer pool1/3x3_s2
I0527 15:12:15.269737  6107 net.cpp:479] pool1/3x3_s2 <- conv1/7x7_s2
I0527 15:12:15.269747  6107 net.cpp:130] This layer is inheriting previous layer's sync mode: 1
I0527 15:12:15.269759  6107 net.cpp:435] pool1/3x3_s2 -> pool1/3x3_s2
I0527 15:12:15.269781  6107 net.cpp:163] Setting up pool1/3x3_s2
I0527 15:12:15.270201  6107 net.cpp:170] Top shape: 10 64 56 56 (2007040)
I0527 15:12:15.270218  6107 layer_factory.hpp:74] Creating layer pool1/norm1
I0527 15:12:15.270236  6107 net.cpp:99] Creating Layer pool1/norm1
I0527 15:12:15.270244  6107 net.cpp:479] pool1/norm1 <- pool1/3x3_s2
I0527 15:12:15.270256  6107 net.cpp:130] This layer is inheriting previous layer's sync mode: 1
I0527 15:12:15.270267  6107 net.cpp:435] pool1/norm1 -> pool1/norm1
I0527 15:12:15.270279  6107 net.cpp:163] Setting up pool1/norm1
I0527 15:12:15.270298  6107 net.cpp:170] Top shape: 10 64 56 56 (2007040)
I0527 15:12:15.270308  6107 layer_factory.hpp:74] Creating layer conv2/3x3_reduce
I0527 15:12:15.270330  6107 net.cpp:99] Creating Layer conv2/3x3_reduce
I0527 15:12:15.270339  6107 net.cpp:479] conv2/3x3_reduce <- pool1/norm1
I0527 15:12:15.270349  6107 net.cpp:130] This layer is inheriting previous layer's sync mode: 1
I0527 15:12:15.270364  6107 net.cpp:435] conv2/3x3_reduce -> conv2/3x3_reduce
I0527 15:12:15.270380  6107 net.cpp:163] Setting up conv2/3x3_reduce
I0527 15:12:15.274600  6106 net.cpp:170] Top shape: 10 32 28 28 (250880)
I0527 15:12:15.274627  6106 layer_factory.hpp:74] Creating layer inception_3a/relu_pool_proj
I0527 15:12:15.274641  6106 net.cpp:99] Creating Layer inception_3a/relu_pool_proj
I0527 15:12:15.274647  6106 net.cpp:479] inception_3a/relu_pool_proj <- inception_3a/pool_proj
I0527 15:12:15.274654  6106 net.cpp:130] This layer is inheriting previous layer's sync mode: 1
I0527 15:12:15.274659  6106 net.cpp:424] inception_3a/relu_pool_proj -> inception_3a/pool_proj (in-place)
I0527 15:12:15.274667  6106 net.cpp:163] Setting up inception_3a/relu_pool_proj
I0527 15:12:15.274922  6106 net.cpp:170] Top shape: 10 32 28 28 (250880)
I0527 15:12:15.274930  6106 layer_factory.hpp:74] Creating layer inception_3a/output
I0527 15:12:15.274941  6106 net.cpp:99] Creating Layer inception_3a/output
I0527 15:12:15.274946  6106 net.cpp:479] inception_3a/output <- inception_3a/1x1
I0527 15:12:15.274953  6106 net.cpp:479] inception_3a/output <- inception_3a/3x3
I0527 15:12:15.274958  6106 net.cpp:479] inception_3a/output <- inception_3a/5x5
I0527 15:12:15.274963  6106 net.cpp:479] inception_3a/output <- inception_3a/pool_proj
I0527 15:12:15.274968  6106 net.cpp:130] This layer is inheriting previous layer's sync mode: 1
I0527 15:12:15.274973  6106 net.cpp:435] inception_3a/output -> inception_3a/output
I0527 15:12:15.274982  6106 net.cpp:163] Setting up inception_3a/output
I0527 15:12:15.274993  6106 net.cpp:170] Top shape: 10 256 28 28 (2007040)
I0527 15:12:15.274999  6106 layer_factory.hpp:74] Creating layer inception_3a/output_inception_3a/output_0_split
I0527 15:12:15.275008  6106 net.cpp:99] Creating Layer inception_3a/output_inception_3a/output_0_split
I0527 15:12:15.275013  6106 net.cpp:479] inception_3a/output_inception_3a/output_0_split <- inception_3a/output
I0527 15:12:15.275018  6106 net.cpp:130] This layer is inheriting previous layer's sync mode: 1
I0527 15:12:15.275023  6106 net.cpp:435] inception_3a/output_inception_3a/output_0_split -> inception_3a/output_inception_3a/output_0_split_0
I0527 15:12:15.275040  6106 net.cpp:435] inception_3a/output_inception_3a/output_0_split -> inception_3a/output_inception_3a/output_0_split_1
I0527 15:12:15.275048  6106 net.cpp:435] inception_3a/output_inception_3a/output_0_split -> inception_3a/output_inception_3a/output_0_split_2
I0527 15:12:15.275055  6106 net.cpp:435] inception_3a/output_inception_3a/output_0_split -> inception_3a/output_inception_3a/output_0_split_3
I0527 15:12:15.275061  6106 net.cpp:163] Setting up inception_3a/output_inception_3a/output_0_split
I0527 15:12:15.275068  6106 net.cpp:170] Top shape: 10 256 28 28 (2007040)
I0527 15:12:15.275074  6106 net.cpp:170] Top shape: 10 256 28 28 (2007040)
I0527 15:12:15.275079  6106 net.cpp:170] Top shape: 10 256 28 28 (2007040)
I0527 15:12:15.275084  6106 net.cpp:170] Top shape: 10 256 28 28 (2007040)
I0527 15:12:15.275090  6106 layer_factory.hpp:74] Creating layer inception_3b/1x1
I0527 15:12:15.275102  6106 net.cpp:99] Creating Layer inception_3b/1x1
I0527 15:12:15.275106  6106 net.cpp:479] inception_3b/1x1 <- inception_3a/output_inception_3a/output_0_split_0
I0527 15:12:15.275111  6106 net.cpp:130] This layer is inheriting previous layer's sync mode: 1
I0527 15:12:15.275118  6106 net.cpp:435] inception_3b/1x1 -> inception_3b/1x1
I0527 15:12:15.275125  6106 net.cpp:163] Setting up inception_3b/1x1
I0527 15:12:15.316470  6107 net.cpp:170] Top shape: 10 64 56 56 (2007040)
I0527 15:12:15.316512  6107 layer_factory.hpp:74] Creating layer conv2/relu_3x3_reduce
I0527 15:12:15.316527  6107 net.cpp:99] Creating Layer conv2/relu_3x3_reduce
I0527 15:12:15.316534  6107 net.cpp:479] conv2/relu_3x3_reduce <- conv2/3x3_reduce
I0527 15:12:15.316541  6107 net.cpp:130] This layer is inheriting previous layer's sync mode: 1
I0527 15:12:15.316548  6107 net.cpp:424] conv2/relu_3x3_reduce -> conv2/3x3_reduce (in-place)
I0527 15:12:15.316557  6107 net.cpp:163] Setting up conv2/relu_3x3_reduce
I0527 15:12:15.319046  6107 net.cpp:170] Top shape: 10 64 56 56 (2007040)
I0527 15:12:15.319061  6107 layer_factory.hpp:74] Creating layer conv2/3x3
I0527 15:12:15.319077  6107 net.cpp:99] Creating Layer conv2/3x3
I0527 15:12:15.319082  6107 net.cpp:479] conv2/3x3 <- conv2/3x3_reduce
I0527 15:12:15.319088  6107 net.cpp:130] This layer is inheriting previous layer's sync mode: 1
I0527 15:12:15.319097  6107 net.cpp:435] conv2/3x3 -> conv2/3x3
I0527 15:12:15.319105  6107 net.cpp:163] Setting up conv2/3x3
I0527 15:12:15.328841  6106 net.cpp:170] Top shape: 10 128 28 28 (1003520)
I0527 15:12:15.328878  6106 layer_factory.hpp:74] Creating layer inception_3b/relu_1x1
I0527 15:12:15.328896  6106 net.cpp:99] Creating Layer inception_3b/relu_1x1
I0527 15:12:15.328905  6106 net.cpp:479] inception_3b/relu_1x1 <- inception_3b/1x1
I0527 15:12:15.328915  6106 net.cpp:130] This layer is inheriting previous layer's sync mode: 1
I0527 15:12:15.328924  6106 net.cpp:424] inception_3b/relu_1x1 -> inception_3b/1x1 (in-place)
I0527 15:12:15.328936  6106 net.cpp:163] Setting up inception_3b/relu_1x1
I0527 15:12:15.329339  6106 net.cpp:170] Top shape: 10 128 28 28 (1003520)
I0527 15:12:15.329354  6106 layer_factory.hpp:74] Creating layer inception_3b/3x3_reduce
I0527 15:12:15.329370  6106 net.cpp:99] Creating Layer inception_3b/3x3_reduce
I0527 15:12:15.329380  6106 net.cpp:479] inception_3b/3x3_reduce <- inception_3a/output_inception_3a/output_0_split_1
I0527 15:12:15.329390  6106 net.cpp:130] This layer is inheriting previous layer's sync mode: 1
I0527 15:12:15.329402  6106 net.cpp:435] inception_3b/3x3_reduce -> inception_3b/3x3_reduce
I0527 15:12:15.329416  6106 net.cpp:163] Setting up inception_3b/3x3_reduce
I0527 15:12:15.369829  6105 net.cpp:170] Top shape: 10 64 112 112 (8028160)
I0527 15:12:15.369884  6105 layer_factory.hpp:74] Creating layer conv1/relu_7x7
I0527 15:12:15.369904  6105 net.cpp:99] Creating Layer conv1/relu_7x7
I0527 15:12:15.369912  6105 net.cpp:479] conv1/relu_7x7 <- conv1/7x7_s2
I0527 15:12:15.369920  6105 net.cpp:130] This layer is inheriting previous layer's sync mode: 1
I0527 15:12:15.369935  6105 net.cpp:424] conv1/relu_7x7 -> conv1/7x7_s2 (in-place)
I0527 15:12:15.369943  6105 net.cpp:163] Setting up conv1/relu_7x7
I0527 15:12:15.370201  6105 net.cpp:170] Top shape: 10 64 112 112 (8028160)
I0527 15:12:15.370210  6105 layer_factory.hpp:74] Creating layer pool1/3x3_s2
I0527 15:12:15.370220  6105 net.cpp:99] Creating Layer pool1/3x3_s2
I0527 15:12:15.370225  6105 net.cpp:479] pool1/3x3_s2 <- conv1/7x7_s2
I0527 15:12:15.370231  6105 net.cpp:130] This layer is inheriting previous layer's sync mode: 1
I0527 15:12:15.370239  6105 net.cpp:435] pool1/3x3_s2 -> pool1/3x3_s2
I0527 15:12:15.370245  6105 net.cpp:163] Setting up pool1/3x3_s2
I0527 15:12:15.370455  6105 net.cpp:170] Top shape: 10 64 56 56 (2007040)
I0527 15:12:15.370463  6105 layer_factory.hpp:74] Creating layer pool1/norm1
I0527 15:12:15.370473  6105 net.cpp:99] Creating Layer pool1/norm1
I0527 15:12:15.370477  6105 net.cpp:479] pool1/norm1 <- pool1/3x3_s2
I0527 15:12:15.370482  6105 net.cpp:130] This layer is inheriting previous layer's sync mode: 1
I0527 15:12:15.370487  6105 net.cpp:435] pool1/norm1 -> pool1/norm1
I0527 15:12:15.370493  6105 net.cpp:163] Setting up pool1/norm1
I0527 15:12:15.370501  6105 net.cpp:170] Top shape: 10 64 56 56 (2007040)
I0527 15:12:15.370506  6105 layer_factory.hpp:74] Creating layer conv2/3x3_reduce
I0527 15:12:15.370518  6105 net.cpp:99] Creating Layer conv2/3x3_reduce
I0527 15:12:15.370523  6105 net.cpp:479] conv2/3x3_reduce <- pool1/norm1
I0527 15:12:15.370528  6105 net.cpp:130] This layer is inheriting previous layer's sync mode: 1
I0527 15:12:15.370535  6105 net.cpp:435] conv2/3x3_reduce -> conv2/3x3_reduce
I0527 15:12:15.370543  6105 net.cpp:163] Setting up conv2/3x3_reduce
I0527 15:12:15.406873  6106 net.cpp:170] Top shape: 10 128 28 28 (1003520)
I0527 15:12:15.406905  6106 layer_factory.hpp:74] Creating layer inception_3b/relu_3x3_reduce
I0527 15:12:15.406924  6106 net.cpp:99] Creating Layer inception_3b/relu_3x3_reduce
I0527 15:12:15.406932  6106 net.cpp:479] inception_3b/relu_3x3_reduce <- inception_3b/3x3_reduce
I0527 15:12:15.406941  6106 net.cpp:130] This layer is inheriting previous layer's sync mode: 1
I0527 15:12:15.406949  6106 net.cpp:424] inception_3b/relu_3x3_reduce -> inception_3b/3x3_reduce (in-place)
I0527 15:12:15.406960  6106 net.cpp:163] Setting up inception_3b/relu_3x3_reduce
I0527 15:12:15.408002  6106 net.cpp:170] Top shape: 10 128 28 28 (1003520)
I0527 15:12:15.408020  6106 layer_factory.hpp:74] Creating layer inception_3b/3x3
I0527 15:12:15.408038  6106 net.cpp:99] Creating Layer inception_3b/3x3
I0527 15:12:15.408046  6106 net.cpp:479] inception_3b/3x3 <- inception_3b/3x3_reduce
I0527 15:12:15.408056  6106 net.cpp:130] This layer is inheriting previous layer's sync mode: 1
I0527 15:12:15.408066  6106 net.cpp:435] inception_3b/3x3 -> inception_3b/3x3
I0527 15:12:15.408079  6106 net.cpp:163] Setting up inception_3b/3x3
I0527 15:12:15.439925  6108 net.cpp:170] Top shape: 10 64 112 112 (8028160)
I0527 15:12:15.439960  6108 layer_factory.hpp:74] Creating layer conv1/relu_7x7
I0527 15:12:15.439978  6108 net.cpp:99] Creating Layer conv1/relu_7x7
I0527 15:12:15.439983  6108 net.cpp:479] conv1/relu_7x7 <- conv1/7x7_s2
I0527 15:12:15.439991  6108 net.cpp:130] This layer is inheriting previous layer's sync mode: 1
I0527 15:12:15.439997  6108 net.cpp:424] conv1/relu_7x7 -> conv1/7x7_s2 (in-place)
I0527 15:12:15.440004  6108 net.cpp:163] Setting up conv1/relu_7x7
I0527 15:12:15.440232  6108 net.cpp:170] Top shape: 10 64 112 112 (8028160)
I0527 15:12:15.440239  6108 layer_factory.hpp:74] Creating layer pool1/3x3_s2
I0527 15:12:15.440248  6108 net.cpp:99] Creating Layer pool1/3x3_s2
I0527 15:12:15.440253  6108 net.cpp:479] pool1/3x3_s2 <- conv1/7x7_s2
I0527 15:12:15.440259  6108 net.cpp:130] This layer is inheriting previous layer's sync mode: 1
I0527 15:12:15.440264  6108 net.cpp:435] pool1/3x3_s2 -> pool1/3x3_s2
I0527 15:12:15.440274  6108 net.cpp:163] Setting up pool1/3x3_s2
I0527 15:12:15.440474  6108 net.cpp:170] Top shape: 10 64 56 56 (2007040)
I0527 15:12:15.440481  6108 layer_factory.hpp:74] Creating layer pool1/norm1
I0527 15:12:15.440502  6108 net.cpp:99] Creating Layer pool1/norm1
I0527 15:12:15.440507  6108 net.cpp:479] pool1/norm1 <- pool1/3x3_s2
I0527 15:12:15.440512  6108 net.cpp:130] This layer is inheriting previous layer's sync mode: 1
I0527 15:12:15.440520  6108 net.cpp:435] pool1/norm1 -> pool1/norm1
I0527 15:12:15.440526  6108 net.cpp:163] Setting up pool1/norm1
I0527 15:12:15.440532  6108 net.cpp:170] Top shape: 10 64 56 56 (2007040)
I0527 15:12:15.440537  6108 layer_factory.hpp:74] Creating layer conv2/3x3_reduce
I0527 15:12:15.440551  6108 net.cpp:99] Creating Layer conv2/3x3_reduce
I0527 15:12:15.440556  6108 net.cpp:479] conv2/3x3_reduce <- pool1/norm1
I0527 15:12:15.440562  6108 net.cpp:130] This layer is inheriting previous layer's sync mode: 1
I0527 15:12:15.440569  6108 net.cpp:435] conv2/3x3_reduce -> conv2/3x3_reduce
I0527 15:12:15.440577  6108 net.cpp:163] Setting up conv2/3x3_reduce
I0527 15:12:15.448706  6107 net.cpp:170] Top shape: 10 192 56 56 (6021120)
I0527 15:12:15.448750  6107 layer_factory.hpp:74] Creating layer conv2/relu_3x3
I0527 15:12:15.448770  6107 net.cpp:99] Creating Layer conv2/relu_3x3
I0527 15:12:15.448779  6107 net.cpp:479] conv2/relu_3x3 <- conv2/3x3
I0527 15:12:15.448792  6107 net.cpp:130] This layer is inheriting previous layer's sync mode: 1
I0527 15:12:15.448804  6107 net.cpp:424] conv2/relu_3x3 -> conv2/3x3 (in-place)
I0527 15:12:15.448819  6107 net.cpp:163] Setting up conv2/relu_3x3
I0527 15:12:15.449314  6107 net.cpp:170] Top shape: 10 192 56 56 (6021120)
I0527 15:12:15.449333  6107 layer_factory.hpp:74] Creating layer conv2/norm2
I0527 15:12:15.449354  6107 net.cpp:99] Creating Layer conv2/norm2
I0527 15:12:15.449363  6107 net.cpp:479] conv2/norm2 <- conv2/3x3
I0527 15:12:15.449373  6107 net.cpp:130] This layer is inheriting previous layer's sync mode: 1
I0527 15:12:15.449386  6107 net.cpp:435] conv2/norm2 -> conv2/norm2
I0527 15:12:15.449400  6107 net.cpp:163] Setting up conv2/norm2
I0527 15:12:15.449416  6107 net.cpp:170] Top shape: 10 192 56 56 (6021120)
I0527 15:12:15.449426  6107 layer_factory.hpp:74] Creating layer pool2/3x3_s2
I0527 15:12:15.449442  6107 net.cpp:99] Creating Layer pool2/3x3_s2
I0527 15:12:15.449450  6107 net.cpp:479] pool2/3x3_s2 <- conv2/norm2
I0527 15:12:15.449463  6107 net.cpp:130] This layer is inheriting previous layer's sync mode: 1
I0527 15:12:15.449473  6107 net.cpp:435] pool2/3x3_s2 -> pool2/3x3_s2
I0527 15:12:15.449488  6107 net.cpp:163] Setting up pool2/3x3_s2
I0527 15:12:15.449904  6107 net.cpp:170] Top shape: 10 192 28 28 (1505280)
I0527 15:12:15.449918  6107 layer_factory.hpp:74] Creating layer pool2/3x3_s2_pool2/3x3_s2_0_split
I0527 15:12:15.449946  6107 net.cpp:99] Creating Layer pool2/3x3_s2_pool2/3x3_s2_0_split
I0527 15:12:15.449955  6107 net.cpp:479] pool2/3x3_s2_pool2/3x3_s2_0_split <- pool2/3x3_s2
I0527 15:12:15.449965  6107 net.cpp:130] This layer is inheriting previous layer's sync mode: 1
I0527 15:12:15.449980  6107 net.cpp:435] pool2/3x3_s2_pool2/3x3_s2_0_split -> pool2/3x3_s2_pool2/3x3_s2_0_split_0
I0527 15:12:15.450000  6107 net.cpp:435] pool2/3x3_s2_pool2/3x3_s2_0_split -> pool2/3x3_s2_pool2/3x3_s2_0_split_1
I0527 15:12:15.450016  6107 net.cpp:435] pool2/3x3_s2_pool2/3x3_s2_0_split -> pool2/3x3_s2_pool2/3x3_s2_0_split_2
I0527 15:12:15.450032  6107 net.cpp:435] pool2/3x3_s2_pool2/3x3_s2_0_split -> pool2/3x3_s2_pool2/3x3_s2_0_split_3
I0527 15:12:15.450044  6107 net.cpp:163] Setting up pool2/3x3_s2_pool2/3x3_s2_0_split
I0527 15:12:15.450059  6107 net.cpp:170] Top shape: 10 192 28 28 (1505280)
I0527 15:12:15.450070  6107 net.cpp:170] Top shape: 10 192 28 28 (1505280)
I0527 15:12:15.450080  6107 net.cpp:170] Top shape: 10 192 28 28 (1505280)
I0527 15:12:15.450089  6107 net.cpp:170] Top shape: 10 192 28 28 (1505280)
I0527 15:12:15.450098  6107 layer_factory.hpp:74] Creating layer inception_3a/1x1
I0527 15:12:15.450129  6107 net.cpp:99] Creating Layer inception_3a/1x1
I0527 15:12:15.450137  6107 net.cpp:479] inception_3a/1x1 <- pool2/3x3_s2_pool2/3x3_s2_0_split_0
I0527 15:12:15.450147  6107 net.cpp:130] This layer is inheriting previous layer's sync mode: 1
I0527 15:12:15.450172  6107 net.cpp:435] inception_3a/1x1 -> inception_3a/1x1
I0527 15:12:15.450192  6107 net.cpp:163] Setting up inception_3a/1x1
I0527 15:12:15.453960  6105 net.cpp:170] Top shape: 10 64 56 56 (2007040)
I0527 15:12:15.453981  6105 layer_factory.hpp:74] Creating layer conv2/relu_3x3_reduce
I0527 15:12:15.453992  6105 net.cpp:99] Creating Layer conv2/relu_3x3_reduce
I0527 15:12:15.453997  6105 net.cpp:479] conv2/relu_3x3_reduce <- conv2/3x3_reduce
I0527 15:12:15.454005  6105 net.cpp:130] This layer is inheriting previous layer's sync mode: 1
I0527 15:12:15.454011  6105 net.cpp:424] conv2/relu_3x3_reduce -> conv2/3x3_reduce (in-place)
I0527 15:12:15.454018  6105 net.cpp:163] Setting up conv2/relu_3x3_reduce
I0527 15:12:15.457895  6105 net.cpp:170] Top shape: 10 64 56 56 (2007040)
I0527 15:12:15.457911  6105 layer_factory.hpp:74] Creating layer conv2/3x3
I0527 15:12:15.457921  6105 net.cpp:99] Creating Layer conv2/3x3
I0527 15:12:15.457926  6105 net.cpp:479] conv2/3x3 <- conv2/3x3_reduce
I0527 15:12:15.457931  6105 net.cpp:130] This layer is inheriting previous layer's sync mode: 1
I0527 15:12:15.457937  6105 net.cpp:435] conv2/3x3 -> conv2/3x3
I0527 15:12:15.457944  6105 net.cpp:163] Setting up conv2/3x3
I0527 15:12:15.513051  6108 net.cpp:170] Top shape: 10 64 56 56 (2007040)
I0527 15:12:15.513083  6108 layer_factory.hpp:74] Creating layer conv2/relu_3x3_reduce
I0527 15:12:15.513088  6106 net.cpp:170] Top shape: 10 192 28 28 (1505280)
I0527 15:12:15.513098  6108 net.cpp:99] Creating Layer conv2/relu_3x3_reduce
I0527 15:12:15.513106  6108 net.cpp:479] conv2/relu_3x3_reduce <- conv2/3x3_reduce
I0527 15:12:15.513108  6106 layer_factory.hpp:74] Creating layer inception_3b/relu_3x3
I0527 15:12:15.513115  6108 net.cpp:130] This layer is inheriting previous layer's sync mode: 1
I0527 15:12:15.513119  6106 net.cpp:99] Creating Layer inception_3b/relu_3x3
I0527 15:12:15.513124  6108 net.cpp:424] conv2/relu_3x3_reduce -> conv2/3x3_reduce (in-place)
I0527 15:12:15.513126  6106 net.cpp:479] inception_3b/relu_3x3 <- inception_3b/3x3
I0527 15:12:15.513135  6106 net.cpp:130] This layer is inheriting previous layer's sync mode: 1
I0527 15:12:15.513137  6108 net.cpp:163] Setting up conv2/relu_3x3_reduce
I0527 15:12:15.513141  6106 net.cpp:424] inception_3b/relu_3x3 -> inception_3b/3x3 (in-place)
I0527 15:12:15.513150  6106 net.cpp:163] Setting up inception_3b/relu_3x3
I0527 15:12:15.513414  6106 net.cpp:170] Top shape: 10 192 28 28 (1505280)
I0527 15:12:15.513424  6106 layer_factory.hpp:74] Creating layer inception_3b/5x5_reduce
I0527 15:12:15.513453  6106 net.cpp:99] Creating Layer inception_3b/5x5_reduce
…
I0527 16:26:18.412813  7349 net.cpp:99] Creating Layer inception_4a/relu_3x3_reduce
I0527 16:26:18.412827  7349 net.cpp:479] inception_4a/relu_3x3_reduce <- inception_4a/3x3_reduce
I0527 16:26:18.412842  7349 net.cpp:130] This layer is inheriting previous layer's sync mode: 1
I0527 16:26:18.412854  7349 net.cpp:424] inception_4a/relu_3x3_reduce -> inception_4a/3x3_reduce (in-place)
I0527 16:26:18.412873  7349 net.cpp:163] Setting up inception_4a/relu_3x3_reduce
I0527 16:26:18.414295  7349 net.cpp:170] Top shape: 10 96 14 14 (188160)
I0527 16:26:18.414324  7349 layer_factory.hpp:74] Creating layer inception_4a/3x3
I0527 16:26:18.414350  7349 net.cpp:99] Creating Layer inception_4a/3x3
I0527 16:26:18.414361  7349 net.cpp:479] inception_4a/3x3 <- inception_4a/3x3_reduce
I0527 16:26:18.414373  7349 net.cpp:130] This layer is inheriting previous layer's sync mode: 1
I0527 16:26:18.414392  7349 net.cpp:435] inception_4a/3x3 -> inception_4a/3x3
I0527 16:26:18.414412  7349 net.cpp:163] Setting up inception_4a/3x3
I0527 16:26:18.459514  7349 net.cpp:170] Top shape: 10 208 14 14 (407680)
I0527 16:26:18.459555  7349 layer_factory.hpp:74] Creating layer inception_4a/relu_3x3
I0527 16:26:18.459575  7349 net.cpp:99] Creating Layer inception_4a/relu_3x3
I0527 16:26:18.459585  7349 net.cpp:479] inception_4a/relu_3x3 <- inception_4a/3x3
I0527 16:26:18.459596  7349 net.cpp:130] This layer is inheriting previous layer's sync mode: 1
I0527 16:26:18.459606  7349 net.cpp:424] inception_4a/relu_3x3 -> inception_4a/3x3 (in-place)
I0527 16:26:18.459621  7349 net.cpp:163] Setting up inception_4a/relu_3x3
I0527 16:26:18.460083  7349 net.cpp:170] Top shape: 10 208 14 14 (407680)
I0527 16:26:18.460104  7349 layer_factory.hpp:74] Creating layer inception_4a/5x5_reduce
I0527 16:26:18.460126  7349 net.cpp:99] Creating Layer inception_4a/5x5_reduce
I0527 16:26:18.460136  7349 net.cpp:479] inception_4a/5x5_reduce <- pool3/3x3_s2_pool3/3x3_s2_0_split_2
I0527 16:26:18.460146  7349 net.cpp:130] This layer is inheriting previous layer's sync mode: 1
I0527 16:26:18.460161  7349 net.cpp:435] inception_4a/5x5_reduce -> inception_4a/5x5_reduce
I0527 16:26:18.460176  7349 net.cpp:163] Setting up inception_4a/5x5_reduce
I0527 16:26:18.485898  7349 net.cpp:170] Top shape: 10 16 14 14 (31360)
I0527 16:26:18.485927  7349 layer_factory.hpp:74] Creating layer inception_4a/relu_5x5_reduce
I0527 16:26:18.485942  7349 net.cpp:99] Creating Layer inception_4a/relu_5x5_reduce
I0527 16:26:18.485951  7349 net.cpp:479] inception_4a/relu_5x5_reduce <- inception_4a/5x5_reduce
I0527 16:26:18.485961  7349 net.cpp:130] This layer is inheriting previous layer's sync mode: 1
I0527 16:26:18.485970  7349 net.cpp:424] inception_4a/relu_5x5_reduce -> inception_4a/5x5_reduce (in-place)
I0527 16:26:18.485983  7349 net.cpp:163] Setting up inception_4a/relu_5x5_reduce
I0527 16:26:18.486373  7349 net.cpp:170] Top shape: 10 16 14 14 (31360)
I0527 16:26:18.486387  7349 layer_factory.hpp:74] Creating layer inception_4a/5x5
I0527 16:26:18.486404  7349 net.cpp:99] Creating Layer inception_4a/5x5
I0527 16:26:18.486413  7349 net.cpp:479] inception_4a/5x5 <- inception_4a/5x5_reduce
I0527 16:26:18.486423  7349 net.cpp:130] This layer is inheriting previous layer's sync mode: 1
I0527 16:26:18.486446  7349 net.cpp:435] inception_4a/5x5 -> inception_4a/5x5
I0527 16:26:18.486461  7349 net.cpp:163] Setting up inception_4a/5x5
I0527 16:26:18.510975  7349 net.cpp:170] Top shape: 10 48 14 14 (94080)
I0527 16:26:18.511001  7349 layer_factory.hpp:74] Creating layer inception_4a/relu_5x5
I0527 16:26:18.511018  7349 net.cpp:99] Creating Layer inception_4a/relu_5x5
I0527 16:26:18.511026  7349 net.cpp:479] inception_4a/relu_5x5 <- inception_4a/5x5
I0527 16:26:18.511034  7349 net.cpp:130] This layer is inheriting previous layer's sync mode: 1
I0527 16:26:18.511042  7349 net.cpp:424] inception_4a/relu_5x5 -> inception_4a/5x5 (in-place)
I0527 16:26:18.511054  7349 net.cpp:163] Setting up inception_4a/relu_5x5
I0527 16:26:18.511910  7349 net.cpp:170] Top shape: 10 48 14 14 (94080)
I0527 16:26:18.511929  7349 layer_factory.hpp:74] Creating layer inception_4a/pool
I0527 16:26:18.511939  7349 layer_factory.cpp:69] CUDNN does not support padding or multiple tops. Using Caffe's own pooling layer.
I0527 16:26:18.511952  7349 net.cpp:99] Creating Layer inception_4a/pool
I0527 16:26:18.511960  7349 net.cpp:479] inception_4a/pool <- pool3/3x3_s2_pool3/3x3_s2_0_split_3
I0527 16:26:18.511968  7349 net.cpp:130] This layer is inheriting previous layer's sync mode: 1
I0527 16:26:18.511977  7349 net.cpp:435] inception_4a/pool -> inception_4a/pool
I0527 16:26:18.511991  7349 net.cpp:163] Setting up inception_4a/pool
I0527 16:26:18.512006  7349 net.cpp:170] Top shape: 10 480 14 14 (940800)
I0527 16:26:18.512013  7349 layer_factory.hpp:74] Creating layer inception_4a/pool_proj
I0527 16:26:18.512025  7349 net.cpp:99] Creating Layer inception_4a/pool_proj
I0527 16:26:18.512032  7349 net.cpp:479] inception_4a/pool_proj <- inception_4a/pool
I0527 16:26:18.512039  7349 net.cpp:130] This layer is inheriting previous layer's sync mode: 1
I0527 16:26:18.512050  7349 net.cpp:435] inception_4a/pool_proj -> inception_4a/pool_proj
I0527 16:26:18.512063  7349 net.cpp:163] Setting up inception_4a/pool_proj
I0527 16:26:18.542096  7349 net.cpp:170] Top shape: 10 64 14 14 (125440)
I0527 16:26:18.542131  7349 layer_factory.hpp:74] Creating layer inception_4a/relu_pool_proj
I0527 16:26:18.542145  7349 net.cpp:99] Creating Layer inception_4a/relu_pool_proj
I0527 16:26:18.542151  7349 net.cpp:479] inception_4a/relu_pool_proj <- inception_4a/pool_proj
I0527 16:26:18.542160  7349 net.cpp:130] This layer is inheriting previous layer's sync mode: 1
I0527 16:26:18.542165  7349 net.cpp:424] inception_4a/relu_pool_proj -> inception_4a/pool_proj (in-place)
I0527 16:26:18.542172  7349 net.cpp:163] Setting up inception_4a/relu_pool_proj
I0527 16:26:18.542469  7349 net.cpp:170] Top shape: 10 64 14 14 (125440)
I0527 16:26:18.542480  7349 layer_factory.hpp:74] Creating layer inception_4a/output
I0527 16:26:18.542488  7349 net.cpp:99] Creating Layer inception_4a/output
I0527 16:26:18.542492  7349 net.cpp:479] inception_4a/output <- inception_4a/1x1
I0527 16:26:18.542500  7349 net.cpp:479] inception_4a/output <- inception_4a/3x3
I0527 16:26:18.542505  7349 net.cpp:479] inception_4a/output <- inception_4a/5x5
I0527 16:26:18.542510  7349 net.cpp:479] inception_4a/output <- inception_4a/pool_proj
I0527 16:26:18.542515  7349 net.cpp:130] This layer is inheriting previous layer's sync mode: 1
I0527 16:26:18.542521  7349 net.cpp:435] inception_4a/output -> inception_4a/output
I0527 16:26:18.542529  7349 net.cpp:163] Setting up inception_4a/output
I0527 16:26:18.542538  7349 net.cpp:170] Top shape: 10 512 14 14 (1003520)
I0527 16:26:18.542543  7349 layer_factory.hpp:74] Creating layer inception_4a/output_inception_4a/output_0_split
I0527 16:26:18.542552  7349 net.cpp:99] Creating Layer inception_4a/output_inception_4a/output_0_split
I0527 16:26:18.542557  7349 net.cpp:479] inception_4a/output_inception_4a/output_0_split <- inception_4a/output
I0527 16:26:18.542562  7349 net.cpp:130] This layer is inheriting previous layer's sync mode: 1
I0527 16:26:18.542567  7349 net.cpp:435] inception_4a/output_inception_4a/output_0_split -> inception_4a/output_inception_4a/output_0_split_0
I0527 16:26:18.542582  7349 net.cpp:435] inception_4a/output_inception_4a/output_0_split -> inception_4a/output_inception_4a/output_0_split_1
I0527 16:26:18.542592  7349 net.cpp:435] inception_4a/output_inception_4a/output_0_split -> inception_4a/output_inception_4a/output_0_split_2
I0527 16:26:18.542598  7349 net.cpp:435] inception_4a/output_inception_4a/output_0_split -> inception_4a/output_inception_4a/output_0_split_3
I0527 16:26:18.542604  7349 net.cpp:163] Setting up inception_4a/output_inception_4a/output_0_split
I0527 16:26:18.542610  7349 net.cpp:170] Top shape: 10 512 14 14 (1003520)
I0527 16:26:18.542615  7349 net.cpp:170] Top shape: 10 512 14 14 (1003520)
I0527 16:26:18.542620  7349 net.cpp:170] Top shape: 10 512 14 14 (1003520)
I0527 16:26:18.542624  7349 net.cpp:170] Top shape: 10 512 14 14 (1003520)
I0527 16:26:18.542629  7349 layer_factory.hpp:74] Creating layer inception_4b/1x1
I0527 16:26:18.542640  7349 net.cpp:99] Creating Layer inception_4b/1x1
I0527 16:26:18.542644  7349 net.cpp:479] inception_4b/1x1 <- inception_4a/output_inception_4a/output_0_split_0
I0527 16:26:18.542649  7349 net.cpp:130] This layer is inheriting previous layer's sync mode: 1
I0527 16:26:18.542656  7349 net.cpp:435] inception_4b/1x1 -> inception_4b/1x1
I0527 16:26:18.542665  7349 net.cpp:163] Setting up inception_4b/1x1
I0527 16:26:18.577656  7349 net.cpp:170] Top shape: 10 160 14 14 (313600)
I0527 16:26:18.577711  7349 layer_factory.hpp:74] Creating layer inception_4b/relu_1x1
I0527 16:26:18.577733  7349 net.cpp:99] Creating Layer inception_4b/relu_1x1
I0527 16:26:18.577746  7349 net.cpp:479] inception_4b/relu_1x1 <- inception_4b/1x1
I0527 16:26:18.577760  7349 net.cpp:130] This layer is inheriting previous layer's sync mode: 1
I0527 16:26:18.577771  7349 net.cpp:424] inception_4b/relu_1x1 -> inception_4b/1x1 (in-place)
I0527 16:26:18.577786  7349 net.cpp:163] Setting up inception_4b/relu_1x1
I0527 16:26:18.578323  7349 net.cpp:170] Top shape: 10 160 14 14 (313600)
I0527 16:26:18.578339  7349 layer_factory.hpp:74] Creating layer inception_4b/3x3_reduce
I0527 16:26:18.578357  7349 net.cpp:99] Creating Layer inception_4b/3x3_reduce
I0527 16:26:18.578366  7349 net.cpp:479] inception_4b/3x3_reduce <- inception_4a/output_inception_4a/output_0_split_1
I0527 16:26:18.578378  7349 net.cpp:130] This layer is inheriting previous layer's sync mode: 1
I0527 16:26:18.578394  7349 net.cpp:435] inception_4b/3x3_reduce -> inception_4b/3x3_reduce
I0527 16:26:18.578414  7349 net.cpp:163] Setting up inception_4b/3x3_reduce
I0527 16:26:18.610363  7349 net.cpp:170] Top shape: 10 112 14 14 (219520)
I0527 16:26:18.610396  7349 layer_factory.hpp:74] Creating layer inception_4b/relu_3x3_reduce
I0527 16:26:18.610409  7349 net.cpp:99] Creating Layer inception_4b/relu_3x3_reduce
I0527 16:26:18.610416  7349 net.cpp:479] inception_4b/relu_3x3_reduce <- inception_4b/3x3_reduce
I0527 16:26:18.610424  7349 net.cpp:130] This layer is inheriting previous layer's sync mode: 1
I0527 16:26:18.610430  7349 net.cpp:424] inception_4b/relu_3x3_reduce -> inception_4b/3x3_reduce (in-place)
I0527 16:26:18.610437  7349 net.cpp:163] Setting up inception_4b/relu_3x3_reduce
I0527 16:26:18.611532  7349 net.cpp:170] Top shape: 10 112 14 14 (219520)
I0527 16:26:18.611563  7349 layer_factory.hpp:74] Creating layer inception_4b/3x3
I0527 16:26:18.611580  7349 net.cpp:99] Creating Layer inception_4b/3x3
I0527 16:26:18.611587  7349 net.cpp:479] inception_4b/3x3 <- inception_4b/3x3_reduce
I0527 16:26:18.611593  7349 net.cpp:130] This layer is inheriting previous layer's sync mode: 1
I0527 16:26:18.611603  7349 net.cpp:435] inception_4b/3x3 -> inception_4b/3x3
I0527 16:26:18.611614  7349 net.cpp:163] Setting up inception_4b/3x3
I0527 16:26:18.655532  7349 net.cpp:170] Top shape: 10 224 14 14 (439040)
I0527 16:26:18.655578  7349 layer_factory.hpp:74] Creating layer inception_4b/relu_3x3
I0527 16:26:18.655599  7349 net.cpp:99] Creating Layer inception_4b/relu_3x3
I0527 16:26:18.655613  7349 net.cpp:479] inception_4b/relu_3x3 <- inception_4b/3x3
I0527 16:26:18.655642  7349 net.cpp:130] This layer is inheriting previous layer's sync mode: 1
I0527 16:26:18.655655  7349 net.cpp:424] inception_4b/relu_3x3 -> inception_4b/3x3 (in-place)
I0527 16:26:18.655673  7349 net.cpp:163] Setting up inception_4b/relu_3x3
I0527 16:26:18.656265  7349 net.cpp:170] Top shape: 10 224 14 14 (439040)
I0527 16:26:18.656286  7349 layer_factory.hpp:74] Creating layer inception_4b/5x5_reduce
I0527 16:26:18.656306  7349 net.cpp:99] Creating Layer inception_4b/5x5_reduce
I0527 16:26:18.656316  7349 net.cpp:479] inception_4b/5x5_reduce <- inception_4a/output_inception_4a/output_0_split_2
I0527 16:26:18.656330  7349 net.cpp:130] This layer is inheriting previous layer's sync mode: 1
I0527 16:26:18.656348  7349 net.cpp:435] inception_4b/5x5_reduce -> inception_4b/5x5_reduce
I0527 16:26:18.656368  7349 net.cpp:163] Setting up inception_4b/5x5_reduce
I0527 16:26:18.679725  7349 net.cpp:170] Top shape: 10 24 14 14 (47040)
I0527 16:26:18.679775  7349 layer_factory.hpp:74] Creating layer inception_4b/relu_5x5_reduce
I0527 16:26:18.679836  7349 net.cpp:99] Creating Layer inception_4b/relu_5x5_reduce
I0527 16:26:18.679879  7349 net.cpp:479] inception_4b/relu_5x5_reduce <- inception_4b/5x5_reduce
I0527 16:26:18.679896  7349 net.cpp:130] This layer is inheriting previous layer's sync mode: 1
I0527 16:26:18.679909  7349 net.cpp:424] inception_4b/relu_5x5_reduce -> inception_4b/5x5_reduce (in-place)
I0527 16:26:18.679924  7349 net.cpp:163] Setting up inception_4b/relu_5x5_reduce
I0527 16:26:18.680435  7349 net.cpp:170] Top shape: 10 24 14 14 (47040)
I0527 16:26:18.680451  7349 layer_factory.hpp:74] Creating layer inception_4b/5x5
I0527 16:26:18.680471  7349 net.cpp:99] Creating Layer inception_4b/5x5
I0527 16:26:18.680480  7349 net.cpp:479] inception_4b/5x5 <- inception_4b/5x5_reduce
I0527 16:26:18.680490  7349 net.cpp:130] This layer is inheriting previous layer's sync mode: 1
I0527 16:26:18.680505  7349 net.cpp:435] inception_4b/5x5 -> inception_4b/5x5
I0527 16:26:18.680521  7349 net.cpp:163] Setting up inception_4b/5x5
I0527 16:26:18.708214  7349 net.cpp:170] Top shape: 10 64 14 14 (125440)
I0527 16:26:18.708252  7349 layer_factory.hpp:74] Creating layer inception_4b/relu_5x5
I0527 16:26:18.708271  7349 net.cpp:99] Creating Layer inception_4b/relu_5x5
I0527 16:26:18.708281  7349 net.cpp:479] inception_4b/relu_5x5 <- inception_4b/5x5
I0527 16:26:18.708292  7349 net.cpp:130] This layer is inheriting previous layer's sync mode: 1
I0527 16:26:18.708300  7349 net.cpp:424] inception_4b/relu_5x5 -> inception_4b/5x5 (in-place)
I0527 16:26:18.708312  7349 net.cpp:163] Setting up inception_4b/relu_5x5
I0527 16:26:18.708776  7349 net.cpp:170] Top shape: 10 64 14 14 (125440)
I0527 16:26:18.708797  7349 layer_factory.hpp:74] Creating layer inception_4b/pool
I0527 16:26:18.708814  7349 layer_factory.cpp:69] CUDNN does not support padding or multiple tops. Using Caffe's own pooling layer.
I0527 16:26:18.708825  7349 net.cpp:99] Creating Layer inception_4b/pool
I0527 16:26:18.708833  7349 net.cpp:479] inception_4b/pool <- inception_4a/output_inception_4a/output_0_split_3
I0527 16:26:18.708842  7349 net.cpp:130] This layer is inheriting previous layer's sync mode: 1
I0527 16:26:18.708858  7349 net.cpp:435] inception_4b/pool -> inception_4b/pool
I0527 16:26:18.708870  7349 net.cpp:163] Setting up inception_4b/pool
I0527 16:26:18.708885  7349 net.cpp:170] Top shape: 10 512 14 14 (1003520)
I0527 16:26:18.708894  7349 layer_factory.hpp:74] Creating layer inception_4b/pool_proj
I0527 16:26:18.708909  7349 net.cpp:99] Creating Layer inception_4b/pool_proj
I0527 16:26:18.708916  7349 net.cpp:479] inception_4b/pool_proj <- inception_4b/pool
I0527 16:26:18.708925  7349 net.cpp:130] This layer is inheriting previous layer's sync mode: 1
I0527 16:26:18.708935  7349 net.cpp:435] inception_4b/pool_proj -> inception_4b/pool_proj
I0527 16:26:18.708947  7349 net.cpp:163] Setting up inception_4b/pool_proj
I0527 16:26:18.736404  7349 net.cpp:170] Top shape: 10 64 14 14 (125440)
I0527 16:26:18.736428  7349 layer_factory.hpp:74] Creating layer inception_4b/relu_pool_proj
I0527 16:26:18.736449  7349 net.cpp:99] Creating Layer inception_4b/relu_pool_proj
I0527 16:26:18.736456  7349 net.cpp:479] inception_4b/relu_pool_proj <- inception_4b/pool_proj
I0527 16:26:18.736464  7349 net.cpp:130] This layer is inheriting previous layer's sync mode: 1
I0527 16:26:18.736472  7349 net.cpp:424] inception_4b/relu_pool_proj -> inception_4b/pool_proj (in-place)
I0527 16:26:18.736482  7349 net.cpp:163] Setting up inception_4b/relu_pool_proj
I0527 16:26:18.737249  7349 net.cpp:170] Top shape: 10 64 14 14 (125440)
I0527 16:26:18.737265  7349 layer_factory.hpp:74] Creating layer inception_4b/output
I0527 16:26:18.737277  7349 net.cpp:99] Creating Layer inception_4b/output
I0527 16:26:18.737283  7349 net.cpp:479] inception_4b/output <- inception_4b/1x1
I0527 16:26:18.737293  7349 net.cpp:479] inception_4b/output <- inception_4b/3x3
I0527 16:26:18.737299  7349 net.cpp:479] inception_4b/output <- inception_4b/5x5
I0527 16:26:18.737306  7349 net.cpp:479] inception_4b/output <- inception_4b/pool_proj
I0527 16:26:18.737313  7349 net.cpp:130] This layer is inheriting previous layer's sync mode: 1
I0527 16:26:18.737320  7349 net.cpp:435] inception_4b/output -> inception_4b/output
I0527 16:26:18.737334  7349 net.cpp:163] Setting up inception_4b/output
I0527 16:26:18.737346  7349 net.cpp:170] Top shape: 10 512 14 14 (1003520)
I0527 16:26:18.737355  7349 layer_factory.hpp:74] Creating layer inception_4b/output_inception_4b/output_0_split
I0527 16:26:18.737365  7349 net.cpp:99] Creating Layer inception_4b/output_inception_4b/output_0_split
I0527 16:26:18.737371  7349 net.cpp:479] inception_4b/output_inception_4b/output_0_split <- inception_4b/output
I0527 16:26:18.737377  7349 net.cpp:130] This layer is inheriting previous layer's sync mode: 1
I0527 16:26:18.737387  7349 net.cpp:435] inception_4b/output_inception_4b/output_0_split -> inception_4b/output_inception_4b/output_0_split_0
I0527 16:26:18.737398  7349 net.cpp:435] inception_4b/output_inception_4b/output_0_split -> inception_4b/output_inception_4b/output_0_split_1
I0527 16:26:18.737408  7349 net.cpp:435] inception_4b/output_inception_4b/output_0_split -> inception_4b/output_inception_4b/output_0_split_2
I0527 16:26:18.737418  7349 net.cpp:435] inception_4b/output_inception_4b/output_0_split -> inception_4b/output_inception_4b/output_0_split_3
I0527 16:26:18.737427  7349 net.cpp:163] Setting up inception_4b/output_inception_4b/output_0_split
I0527 16:26:18.737437  7349 net.cpp:170] Top shape: 10 512 14 14 (1003520)
I0527 16:26:18.737443  7349 net.cpp:170] Top shape: 10 512 14 14 (1003520)
I0527 16:26:18.737450  7349 net.cpp:170] Top shape: 10 512 14 14 (1003520)
I0527 16:26:18.737457  7349 net.cpp:170] Top shape: 10 512 14 14 (1003520)
I0527 16:26:18.737463  7349 layer_factory.hpp:74] Creating layer inception_4c/1x1
I0527 16:26:18.737478  7349 net.cpp:99] Creating Layer inception_4c/1x1
I0527 16:26:18.737483  7349 net.cpp:479] inception_4c/1x1 <- inception_4b/output_inception_4b/output_0_split_0
I0527 16:26:18.737490  7349 net.cpp:130] This layer is inheriting previous layer's sync mode: 1
I0527 16:26:18.737501  7349 net.cpp:435] inception_4c/1x1 -> inception_4c/1x1
I0527 16:26:18.737511  7349 net.cpp:163] Setting up inception_4c/1x1
I0527 16:26:18.769065  7349 net.cpp:170] Top shape: 10 128 14 14 (250880)
I0527 16:26:18.769088  7349 layer_factory.hpp:74] Creating layer inception_4c/relu_1x1
I0527 16:26:18.769099  7349 net.cpp:99] Creating Layer inception_4c/relu_1x1
I0527 16:26:18.769105  7349 net.cpp:479] inception_4c/relu_1x1 <- inception_4c/1x1
I0527 16:26:18.769114  7349 net.cpp:130] This layer is inheriting previous layer's sync mode: 1
I0527 16:26:18.769119  7349 net.cpp:424] inception_4c/relu_1x1 -> inception_4c/1x1 (in-place)
I0527 16:26:18.769129  7349 net.cpp:163] Setting up inception_4c/relu_1x1
I0527 16:26:18.769421  7349 net.cpp:170] Top shape: 10 128 14 14 (250880)
I0527 16:26:18.769436  7349 layer_factory.hpp:74] Creating layer inception_4c/3x3_reduce
I0527 16:26:18.769450  7349 net.cpp:99] Creating Layer inception_4c/3x3_reduce
I0527 16:26:18.769464  7349 net.cpp:479] inception_4c/3x3_reduce <- inception_4b/output_inception_4b/output_0_split_1
I0527 16:26:18.769470  7349 net.cpp:130] This layer is inheriting previous layer's sync mode: 1
I0527 16:26:18.769480  7349 net.cpp:435] inception_4c/3x3_reduce -> inception_4c/3x3_reduce
I0527 16:26:18.769491  7349 net.cpp:163] Setting up inception_4c/3x3_reduce
I0527 16:26:18.798831  7349 net.cpp:170] Top shape: 10 128 14 14 (250880)
I0527 16:26:18.798862  7349 layer_factory.hpp:74] Creating layer inception_4c/relu_3x3_reduce
I0527 16:26:18.798876  7349 net.cpp:99] Creating Layer inception_4c/relu_3x3_reduce
I0527 16:26:18.798882  7349 net.cpp:479] inception_4c/relu_3x3_reduce <- inception_4c/3x3_reduce
I0527 16:26:18.798889  7349 net.cpp:130] This layer is inheriting previous layer's sync mode: 1
I0527 16:26:18.798895  7349 net.cpp:424] inception_4c/relu_3x3_reduce -> inception_4c/3x3_reduce (in-place)
I0527 16:26:18.798904  7349 net.cpp:163] Setting up inception_4c/relu_3x3_reduce
I0527 16:26:18.799214  7349 net.cpp:170] Top shape: 10 128 14 14 (250880)
I0527 16:26:18.799224  7349 layer_factory.hpp:74] Creating layer inception_4c/3x3
I0527 16:26:18.799235  7349 net.cpp:99] Creating Layer inception_4c/3x3
I0527 16:26:18.799240  7349 net.cpp:479] inception_4c/3x3 <- inception_4c/3x3_reduce
I0527 16:26:18.799247  7349 net.cpp:130] This layer is inheriting previous layer's sync mode: 1
I0527 16:26:18.799258  7349 net.cpp:435] inception_4c/3x3 -> inception_4c/3x3
I0527 16:26:18.799268  7349 net.cpp:163] Setting up inception_4c/3x3
I0527 16:26:18.847739  7349 net.cpp:170] Top shape: 10 256 14 14 (501760)
I0527 16:26:18.847782  7349 layer_factory.hpp:74] Creating layer inception_4c/relu_3x3
I0527 16:26:18.847800  7349 net.cpp:99] Creating Layer inception_4c/relu_3x3
I0527 16:26:18.847806  7349 net.cpp:479] inception_4c/relu_3x3 <- inception_4c/3x3
I0527 16:26:18.847815  7349 net.cpp:130] This layer is inheriting previous layer's sync mode: 1
I0527 16:26:18.847821  7349 net.cpp:424] inception_4c/relu_3x3 -> inception_4c/3x3 (in-place)
I0527 16:26:18.847831  7349 net.cpp:163] Setting up inception_4c/relu_3x3
I0527 16:26:18.848861  7349 net.cpp:170] Top shape: 10 256 14 14 (501760)
I0527 16:26:18.848875  7349 layer_factory.hpp:74] Creating layer inception_4c/5x5_reduce
I0527 16:26:18.848888  7349 net.cpp:99] Creating Layer inception_4c/5x5_reduce
I0527 16:26:18.848893  7349 net.cpp:479] inception_4c/5x5_reduce <- inception_4b/output_inception_4b/output_0_split_2
I0527 16:26:18.848899  7349 net.cpp:130] This layer is inheriting previous layer's sync mode: 1
I0527 16:26:18.848906  7349 net.cpp:435] inception_4c/5x5_reduce -> inception_4c/5x5_reduce
I0527 16:26:18.848940  7349 net.cpp:163] Setting up inception_4c/5x5_reduce
I0527 16:26:18.872498  7349 net.cpp:170] Top shape: 10 24 14 14 (47040)
I0527 16:26:18.872545  7349 layer_factory.hpp:74] Creating layer inception_4c/relu_5x5_reduce
I0527 16:26:18.872567  7349 net.cpp:99] Creating Layer inception_4c/relu_5x5_reduce
I0527 16:26:18.872579  7349 net.cpp:479] inception_4c/relu_5x5_reduce <- inception_4c/5x5_reduce
I0527 16:26:18.872592  7349 net.cpp:130] This layer is inheriting previous layer's sync mode: 1
I0527 16:26:18.872603  7349 net.cpp:424] inception_4c/relu_5x5_reduce -> inception_4c/5x5_reduce (in-place)
I0527 16:26:18.872620  7349 net.cpp:163] Setting up inception_4c/relu_5x5_reduce
I0527 16:26:18.873145  7349 net.cpp:170] Top shape: 10 24 14 14 (47040)
I0527 16:26:18.873162  7349 layer_factory.hpp:74] Creating layer inception_4c/5x5
I0527 16:26:18.873186  7349 net.cpp:99] Creating Layer inception_4c/5x5
I0527 16:26:18.873196  7349 net.cpp:479] inception_4c/5x5 <- inception_4c/5x5_reduce
I0527 16:26:18.873208  7349 net.cpp:130] This layer is inheriting previous layer's sync mode: 1
I0527 16:26:18.873219  7349 net.cpp:435] inception_4c/5x5 -> inception_4c/5x5
I0527 16:26:18.873239  7349 net.cpp:163] Setting up inception_4c/5x5
I0527 16:26:18.893823  7349 net.cpp:170] Top shape: 10 64 14 14 (125440)
I0527 16:26:18.893854  7349 layer_factory.hpp:74] Creating layer inception_4c/relu_5x5
I0527 16:26:18.893879  7349 net.cpp:99] Creating Layer inception_4c/relu_5x5
I0527 16:26:18.893889  7349 net.cpp:479] inception_4c/relu_5x5 <- inception_4c/5x5
I0527 16:26:18.893900  7349 net.cpp:130] This layer is inheriting previous layer's sync mode: 1
I0527 16:26:18.893909  7349 net.cpp:424] inception_4c/relu_5x5 -> inception_4c/5x5 (in-place)
I0527 16:26:18.893921  7349 net.cpp:163] Setting up inception_4c/relu_5x5
I0527 16:26:18.894346  7349 net.cpp:170] Top shape: 10 64 14 14 (125440)
I0527 16:26:18.894361  7349 layer_factory.hpp:74] Creating layer inception_4c/pool
I0527 16:26:18.894371  7349 layer_factory.cpp:69] CUDNN does not support padding or multiple tops. Using Caffe's own pooling layer.
I0527 16:26:18.894384  7349 net.cpp:99] Creating Layer inception_4c/pool
I0527 16:26:18.894393  7349 net.cpp:479] inception_4c/pool <- inception_4b/output_inception_4b/output_0_split_3
I0527 16:26:18.894404  7349 net.cpp:130] This layer is inheriting previous layer's sync mode: 1
I0527 16:26:18.894413  7349 net.cpp:435] inception_4c/pool -> inception_4c/pool
I0527 16:26:18.894428  7349 net.cpp:163] Setting up inception_4c/pool
I0527 16:26:18.894443  7349 net.cpp:170] Top shape: 10 512 14 14 (1003520)
I0527 16:26:18.894450  7349 layer_factory.hpp:74] Creating layer inception_4c/pool_proj
I0527 16:26:18.894470  7349 net.cpp:99] Creating Layer inception_4c/pool_proj
I0527 16:26:18.894479  7349 net.cpp:479] inception_4c/pool_proj <- inception_4c/pool
I0527 16:26:18.894487  7349 net.cpp:130] This layer is inheriting previous layer's sync mode: 1
I0527 16:26:18.894500  7349 net.cpp:435] inception_4c/pool_proj -> inception_4c/pool_proj
I0527 16:26:18.894513  7349 net.cpp:163] Setting up inception_4c/pool_proj
I0527 16:26:18.922472  7349 net.cpp:170] Top shape: 10 64 14 14 (125440)
I0527 16:26:18.922514  7349 layer_factory.hpp:74] Creating layer inception_4c/relu_pool_proj
I0527 16:26:18.922530  7349 net.cpp:99] Creating Layer inception_4c/relu_pool_proj
I0527 16:26:18.922539  7349 net.cpp:479] inception_4c/relu_pool_proj <- inception_4c/pool_proj
I0527 16:26:18.922549  7349 net.cpp:130] This layer is inheriting previous layer's sync mode: 1
I0527 16:26:18.922559  7349 net.cpp:424] inception_4c/relu_pool_proj -> inception_4c/pool_proj (in-place)
I0527 16:26:18.922572  7349 net.cpp:163] Setting up inception_4c/relu_pool_proj
I0527 16:26:18.923660  7349 net.cpp:170] Top shape: 10 64 14 14 (125440)
I0527 16:26:18.923679  7349 layer_factory.hpp:74] Creating layer inception_4c/output
I0527 16:26:18.923693  7349 net.cpp:99] Creating Layer inception_4c/output
I0527 16:26:18.923702  7349 net.cpp:479] inception_4c/output <- inception_4c/1x1
I0527 16:26:18.923713  7349 net.cpp:479] inception_4c/output <- inception_4c/3x3
I0527 16:26:18.923723  7349 net.cpp:479] inception_4c/output <- inception_4c/5x5
I0527 16:26:18.923732  7349 net.cpp:479] inception_4c/output <- inception_4c/pool_proj
I0527 16:26:18.923740  7349 net.cpp:130] This layer is inheriting previous layer's sync mode: 1
I0527 16:26:18.923753  7349 net.cpp:435] inception_4c/output -> inception_4c/output
I0527 16:26:18.923768  7349 net.cpp:163] Setting up inception_4c/output
I0527 16:26:18.923782  7349 net.cpp:170] Top shape: 10 512 14 14 (1003520)
I0527 16:26:18.923791  7349 layer_factory.hpp:74] Creating layer inception_4c/output_inception_4c/output_0_split
I0527 16:26:18.923804  7349 net.cpp:99] Creating Layer inception_4c/output_inception_4c/output_0_split
I0527 16:26:18.923810  7349 net.cpp:479] inception_4c/output_inception_4c/output_0_split <- inception_4c/output
I0527 16:26:18.923818  7349 net.cpp:130] This layer is inheriting previous layer's sync mode: 1
I0527 16:26:18.923833  7349 net.cpp:435] inception_4c/output_inception_4c/output_0_split -> inception_4c/output_inception_4c/output_0_split_0
I0527 16:26:18.923873  7349 net.cpp:435] inception_4c/output_inception_4c/output_0_split -> inception_4c/output_inception_4c/output_0_split_1
I0527 16:26:18.923889  7349 net.cpp:435] inception_4c/output_inception_4c/output_0_split -> inception_4c/output_inception_4c/output_0_split_2
I0527 16:26:18.923918  7349 net.cpp:435] inception_4c/output_inception_4c/output_0_split -> inception_4c/output_inception_4c/output_0_split_3
I0527 16:26:18.923930  7349 net.cpp:163] Setting up inception_4c/output_inception_4c/output_0_split
I0527 16:26:18.923943  7349 net.cpp:170] Top shape: 10 512 14 14 (1003520)
I0527 16:26:18.923951  7349 net.cpp:170] Top shape: 10 512 14 14 (1003520)
I0527 16:26:18.923959  7349 net.cpp:170] Top shape: 10 512 14 14 (1003520)
I0527 16:26:18.923969  7349 net.cpp:170] Top shape: 10 512 14 14 (1003520)
I0527 16:26:18.923980  7349 layer_factory.hpp:74] Creating layer inception_4d/1x1
I0527 16:26:18.923995  7349 net.cpp:99] Creating Layer inception_4d/1x1
I0527 16:26:18.924001  7349 net.cpp:479] inception_4d/1x1 <- inception_4c/output_inception_4c/output_0_split_0
I0527 16:26:18.924010  7349 net.cpp:130] This layer is inheriting previous layer's sync mode: 1
I0527 16:26:18.924023  7349 net.cpp:435] inception_4d/1x1 -> inception_4d/1x1
I0527 16:26:18.924038  7349 net.cpp:163] Setting up inception_4d/1x1
I0527 16:26:18.964097  7349 net.cpp:170] Top shape: 10 112 14 14 (219520)
I0527 16:26:18.964133  7349 layer_factory.hpp:74] Creating layer inception_4d/relu_1x1
I0527 16:26:18.964148  7349 net.cpp:99] Creating Layer inception_4d/relu_1x1
I0527 16:26:18.964156  7349 net.cpp:479] inception_4d/relu_1x1 <- inception_4d/1x1
I0527 16:26:18.964166  7349 net.cpp:130] This layer is inheriting previous layer's sync mode: 1
I0527 16:26:18.964175  7349 net.cpp:424] inception_4d/relu_1x1 -> inception_4d/1x1 (in-place)
I0527 16:26:18.964188  7349 net.cpp:163] Setting up inception_4d/relu_1x1
I0527 16:26:18.964604  7349 net.cpp:170] Top shape: 10 112 14 14 (219520)
I0527 16:26:18.964617  7349 layer_factory.hpp:74] Creating layer inception_4d/3x3_reduce
I0527 16:26:18.964637  7349 net.cpp:99] Creating Layer inception_4d/3x3_reduce
I0527 16:26:18.964645  7349 net.cpp:479] inception_4d/3x3_reduce <- inception_4c/output_inception_4c/output_0_split_1
I0527 16:26:18.964654  7349 net.cpp:130] This layer is inheriting previous layer's sync mode: 1
I0527 16:26:18.964668  7349 net.cpp:435] inception_4d/3x3_reduce -> inception_4d/3x3_reduce
I0527 16:26:18.964682  7349 net.cpp:163] Setting up inception_4d/3x3_reduce
I0527 16:26:19.008312  7349 net.cpp:170] Top shape: 10 144 14 14 (282240)
I0527 16:26:19.008347  7349 layer_factory.hpp:74] Creating layer inception_4d/relu_3x3_reduce
I0527 16:26:19.008361  7349 net.cpp:99] Creating Layer inception_4d/relu_3x3_reduce
I0527 16:26:19.008370  7349 net.cpp:479] inception_4d/relu_3x3_reduce <- inception_4d/3x3_reduce
I0527 16:26:19.008385  7349 net.cpp:130] This layer is inheriting previous layer's sync mode: 1
I0527 16:26:19.008394  7349 net.cpp:424] inception_4d/relu_3x3_reduce -> inception_4d/3x3_reduce (in-place)
I0527 16:26:19.008404  7349 net.cpp:163] Setting up inception_4d/relu_3x3_reduce
I0527 16:26:19.008771  7349 net.cpp:170] Top shape: 10 144 14 14 (282240)
I0527 16:26:19.008785  7349 layer_factory.hpp:74] Creating layer inception_4d/3x3
I0527 16:26:19.008800  7349 net.cpp:99] Creating Layer inception_4d/3x3
I0527 16:26:19.008807  7349 net.cpp:479] inception_4d/3x3 <- inception_4d/3x3_reduce
I0527 16:26:19.008816  7349 net.cpp:130] This layer is inheriting previous layer's sync mode: 1
I0527 16:26:19.008826  7349 net.cpp:435] inception_4d/3x3 -> inception_4d/3x3
I0527 16:26:19.008838  7349 net.cpp:163] Setting up inception_4d/3x3
I0527 16:26:19.063670  7349 net.cpp:170] Top shape: 10 288 14 14 (564480)
I0527 16:26:19.063711  7349 layer_factory.hpp:74] Creating layer inception_4d/relu_3x3
I0527 16:26:19.063730  7349 net.cpp:99] Creating Layer inception_4d/relu_3x3
I0527 16:26:19.063740  7349 net.cpp:479] inception_4d/relu_3x3 <- inception_4d/3x3
I0527 16:26:19.063752  7349 net.cpp:130] This layer is inheriting previous layer's sync mode: 1
I0527 16:26:19.063763  7349 net.cpp:424] inception_4d/relu_3x3 -> inception_4d/3x3 (in-place)
I0527 16:26:19.063778  7349 net.cpp:163] Setting up inception_4d/relu_3x3
I0527 16:26:19.064297  7349 net.cpp:170] Top shape: 10 288 14 14 (564480)
I0527 16:26:19.064318  7349 layer_factory.hpp:74] Creating layer inception_4d/5x5_reduce
I0527 16:26:19.064339  7349 net.cpp:99] Creating Layer inception_4d/5x5_reduce
I0527 16:26:19.064349  7349 net.cpp:479] inception_4d/5x5_reduce <- inception_4c/output_inception_4c/output_0_split_2
I0527 16:26:19.064360  7349 net.cpp:130] This layer is inheriting previous layer's sync mode: 1
I0527 16:26:19.064374  7349 net.cpp:435] inception_4d/5x5_reduce -> inception_4d/5x5_reduce
I0527 16:26:19.064390  7349 net.cpp:163] Setting up inception_4d/5x5_reduce
I0527 16:26:19.090961  7349 net.cpp:170] Top shape: 10 32 14 14 (62720)
I0527 16:26:19.090996  7349 layer_factory.hpp:74] Creating layer inception_4d/relu_5x5_reduce
I0527 16:26:19.091012  7349 net.cpp:99] Creating Layer inception_4d/relu_5x5_reduce
I0527 16:26:19.091023  7349 net.cpp:479] inception_4d/relu_5x5_reduce <- inception_4d/5x5_reduce
I0527 16:26:19.091033  7349 net.cpp:130] This layer is inheriting previous layer's sync mode: 1
I0527 16:26:19.091043  7349 net.cpp:424] inception_4d/relu_5x5_reduce -> inception_4d/5x5_reduce (in-place)
I0527 16:26:19.091058  7349 net.cpp:163] Setting up inception_4d/relu_5x5_reduce
I0527 16:26:19.093346  7349 net.cpp:170] Top shape: 10 32 14 14 (62720)
I0527 16:26:19.093389  7349 layer_factory.hpp:74] Creating layer inception_4d/5x5
I0527 16:26:19.093417  7349 net.cpp:99] Creating Layer inception_4d/5x5
I0527 16:26:19.093430  7349 net.cpp:479] inception_4d/5x5 <- inception_4d/5x5_reduce
I0527 16:26:19.093446  7349 net.cpp:130] This layer is inheriting previous layer's sync mode: 1
I0527 16:26:19.093462  7349 net.cpp:435] inception_4d/5x5 -> inception_4d/5x5
I0527 16:26:19.093483  7349 net.cpp:163] Setting up inception_4d/5x5
I0527 16:26:19.120553  7349 net.cpp:170] Top shape: 10 64 14 14 (125440)
I0527 16:26:19.120584  7349 layer_factory.hpp:74] Creating layer inception_4d/relu_5x5
I0527 16:26:19.120599  7349 net.cpp:99] Creating Layer inception_4d/relu_5x5
I0527 16:26:19.120607  7349 net.cpp:479] inception_4d/relu_5x5 <- inception_4d/5x5
I0527 16:26:19.120616  7349 net.cpp:130] This layer is inheriting previous layer's sync mode: 1
I0527 16:26:19.120625  7349 net.cpp:424] inception_4d/relu_5x5 -> inception_4d/5x5 (in-place)
I0527 16:26:19.120636  7349 net.cpp:163] Setting up inception_4d/relu_5x5
I0527 16:26:19.121018  7349 net.cpp:170] Top shape: 10 64 14 14 (125440)
I0527 16:26:19.121032  7349 layer_factory.hpp:74] Creating layer inception_4d/pool
I0527 16:26:19.121042  7349 layer_factory.cpp:69] CUDNN does not support padding or multiple tops. Using Caffe's own pooling layer.
I0527 16:26:19.121052  7349 net.cpp:99] Creating Layer inception_4d/pool
I0527 16:26:19.121058  7349 net.cpp:479] inception_4d/pool <- inception_4c/output_inception_4c/output_0_split_3
I0527 16:26:19.121068  7349 net.cpp:130] This layer is inheriting previous layer's sync mode: 1
I0527 16:26:19.121078  7349 net.cpp:435] inception_4d/pool -> inception_4d/pool
I0527 16:26:19.121090  7349 net.cpp:163] Setting up inception_4d/pool
I0527 16:26:19.121104  7349 net.cpp:170] Top shape: 10 512 14 14 (1003520)
I0527 16:26:19.121110  7349 layer_factory.hpp:74] Creating layer inception_4d/pool_proj
I0527 16:26:19.121125  7349 net.cpp:99] Creating Layer inception_4d/pool_proj
I0527 16:26:19.121132  7349 net.cpp:479] inception_4d/pool_proj <- inception_4d/pool
I0527 16:26:19.121140  7349 net.cpp:130] This layer is inheriting previous layer's sync mode: 1
I0527 16:26:19.121151  7349 net.cpp:435] inception_4d/pool_proj -> inception_4d/pool_proj
I0527 16:26:19.121163  7349 net.cpp:163] Setting up inception_4d/pool_proj
I0527 16:26:19.146939  7349 net.cpp:170] Top shape: 10 64 14 14 (125440)
I0527 16:26:19.146975  7349 layer_factory.hpp:74] Creating layer inception_4d/relu_pool_proj
I0527 16:26:19.146991  7349 net.cpp:99] Creating Layer inception_4d/relu_pool_proj
I0527 16:26:19.146998  7349 net.cpp:479] inception_4d/relu_pool_proj <- inception_4d/pool_proj
I0527 16:26:19.147006  7349 net.cpp:130] This layer is inheriting previous layer's sync mode: 1
I0527 16:26:19.147022  7349 net.cpp:424] inception_4d/relu_pool_proj -> inception_4d/pool_proj (in-place)
I0527 16:26:19.147030  7349 net.cpp:163] Setting up inception_4d/relu_pool_proj
I0527 16:26:19.147327  7349 net.cpp:170] Top shape: 10 64 14 14 (125440)
I0527 16:26:19.147336  7349 layer_factory.hpp:74] Creating layer inception_4d/output
I0527 16:26:19.147346  7349 net.cpp:99] Creating Layer inception_4d/output
I0527 16:26:19.147351  7349 net.cpp:479] inception_4d/output <- inception_4d/1x1
I0527 16:26:19.147357  7349 net.cpp:479] inception_4d/output <- inception_4d/3x3
I0527 16:26:19.147363  7349 net.cpp:479] inception_4d/output <- inception_4d/5x5
I0527 16:26:19.147368  7349 net.cpp:479] inception_4d/output <- inception_4d/pool_proj
I0527 16:26:19.147373  7349 net.cpp:130] This layer is inheriting previous layer's sync mode: 1
I0527 16:26:19.147379  7349 net.cpp:435] inception_4d/output -> inception_4d/output
I0527 16:26:19.147390  7349 net.cpp:163] Setting up inception_4d/output
I0527 16:26:19.147400  7349 net.cpp:170] Top shape: 10 528 14 14 (1034880)
I0527 16:26:19.147404  7349 layer_factory.hpp:74] Creating layer inception_4d/output_inception_4d/output_0_split
I0527 16:26:19.147413  7349 net.cpp:99] Creating Layer inception_4d/output_inception_4d/output_0_split
I0527 16:26:19.147416  7349 net.cpp:479] inception_4d/output_inception_4d/output_0_split <- inception_4d/output
I0527 16:26:19.147421  7349 net.cpp:130] This layer is inheriting previous layer's sync mode: 1
I0527 16:26:19.147428  7349 net.cpp:435] inception_4d/output_inception_4d/output_0_split -> inception_4d/output_inception_4d/output_0_split_0
I0527 16:26:19.147436  7349 net.cpp:435] inception_4d/output_inception_4d/output_0_split -> inception_4d/output_inception_4d/output_0_split_1
I0527 16:26:19.147444  7349 net.cpp:435] inception_4d/output_inception_4d/output_0_split -> inception_4d/output_inception_4d/output_0_split_2
I0527 16:26:19.147451  7349 net.cpp:435] inception_4d/output_inception_4d/output_0_split -> inception_4d/output_inception_4d/output_0_split_3
I0527 16:26:19.147459  7349 net.cpp:163] Setting up inception_4d/output_inception_4d/output_0_split
I0527 16:26:19.147466  7349 net.cpp:170] Top shape: 10 528 14 14 (1034880)
I0527 16:26:19.147471  7349 net.cpp:170] Top shape: 10 528 14 14 (1034880)
I0527 16:26:19.147476  7349 net.cpp:170] Top shape: 10 528 14 14 (1034880)
I0527 16:26:19.147481  7349 net.cpp:170] Top shape: 10 528 14 14 (1034880)
I0527 16:26:19.147486  7349 layer_factory.hpp:74] Creating layer inception_4e/1x1
I0527 16:26:19.147497  7349 net.cpp:99] Creating Layer inception_4e/1x1
I0527 16:26:19.147501  7349 net.cpp:479] inception_4e/1x1 <- inception_4d/output_inception_4d/output_0_split_0
I0527 16:26:19.147506  7349 net.cpp:130] This layer is inheriting previous layer's sync mode: 1
I0527 16:26:19.147516  7349 net.cpp:435] inception_4e/1x1 -> inception_4e/1x1
I0527 16:26:19.147523  7349 net.cpp:163] Setting up inception_4e/1x1
I0527 16:26:19.203266  7349 net.cpp:170] Top shape: 10 256 14 14 (501760)
I0527 16:26:19.203306  7349 layer_factory.hpp:74] Creating layer inception_4e/relu_1x1
I0527 16:26:19.203326  7349 net.cpp:99] Creating Layer inception_4e/relu_1x1
I0527 16:26:19.203337  7349 net.cpp:479] inception_4e/relu_1x1 <- inception_4e/1x1
I0527 16:26:19.203351  7349 net.cpp:130] This layer is inheriting previous layer's sync mode: 1
I0527 16:26:19.203363  7349 net.cpp:424] inception_4e/relu_1x1 -> inception_4e/1x1 (in-place)
I0527 16:26:19.203380  7349 net.cpp:163] Setting up inception_4e/relu_1x1
I0527 16:26:19.204982  7349 net.cpp:170] Top shape: 10 256 14 14 (501760)
I0527 16:26:19.205009  7349 layer_factory.hpp:74] Creating layer inception_4e/3x3_reduce
I0527 16:26:19.205031  7349 net.cpp:99] Creating Layer inception_4e/3x3_reduce
I0527 16:26:19.205044  7349 net.cpp:479] inception_4e/3x3_reduce <- inception_4d/output_inception_4d/output_0_split_1
I0527 16:26:19.205055  7349 net.cpp:130] This layer is inheriting previous layer's sync mode: 1
I0527 16:26:19.205070  7349 net.cpp:435] inception_4e/3x3_reduce -> inception_4e/3x3_reduce
I0527 16:26:19.205097  7349 net.cpp:163] Setting up inception_4e/3x3_reduce
I0527 16:26:19.245189  7349 net.cpp:170] Top shape: 10 160 14 14 (313600)
I0527 16:26:19.245232  7349 layer_factory.hpp:74] Creating layer inception_4e/relu_3x3_reduce
I0527 16:26:19.245250  7349 net.cpp:99] Creating Layer inception_4e/relu_3x3_reduce
I0527 16:26:19.245260  7349 net.cpp:479] inception_4e/relu_3x3_reduce <- inception_4e/3x3_reduce
I0527 16:26:19.245272  7349 net.cpp:130] This layer is inheriting previous layer's sync mode: 1
I0527 16:26:19.245281  7349 net.cpp:424] inception_4e/relu_3x3_reduce -> inception_4e/3x3_reduce (in-place)
I0527 16:26:19.245295  7349 net.cpp:163] Setting up inception_4e/relu_3x3_reduce
I0527 16:26:19.245741  7349 net.cpp:170] Top shape: 10 160 14 14 (313600)
I0527 16:26:19.245757  7349 layer_factory.hpp:74] Creating layer inception_4e/3x3
I0527 16:26:19.245775  7349 net.cpp:99] Creating Layer inception_4e/3x3
I0527 16:26:19.245784  7349 net.cpp:479] inception_4e/3x3 <- inception_4e/3x3_reduce
I0527 16:26:19.245792  7349 net.cpp:130] This layer is inheriting previous layer's sync mode: 1
I0527 16:26:19.245803  7349 net.cpp:435] inception_4e/3x3 -> inception_4e/3x3
I0527 16:26:19.245820  7349 net.cpp:163] Setting up inception_4e/3x3
I0527 16:26:19.313040  7349 net.cpp:170] Top shape: 10 320 14 14 (627200)
I0527 16:26:19.313063  7349 layer_factory.hpp:74] Creating layer inception_4e/relu_3x3
I0527 16:26:19.313076  7349 net.cpp:99] Creating Layer inception_4e/relu_3x3
I0527 16:26:19.313083  7349 net.cpp:479] inception_4e/relu_3x3 <- inception_4e/3x3
I0527 16:26:19.313089  7349 net.cpp:130] This layer is inheriting previous layer's sync mode: 1
I0527 16:26:19.313096  7349 net.cpp:424] inception_4e/relu_3x3 -> inception_4e/3x3 (in-place)
I0527 16:26:19.313103  7349 net.cpp:163] Setting up inception_4e/relu_3x3
I0527 16:26:19.313366  7349 net.cpp:170] Top shape: 10 320 14 14 (627200)
I0527 16:26:19.313374  7349 layer_factory.hpp:74] Creating layer inception_4e/5x5_reduce
I0527 16:26:19.313386  7349 net.cpp:99] Creating Layer inception_4e/5x5_reduce
I0527 16:26:19.313391  7349 net.cpp:479] inception_4e/5x5_reduce <- inception_4d/output_inception_4d/output_0_split_2
I0527 16:26:19.313397  7349 net.cpp:130] This layer is inheriting previous layer's sync mode: 1
I0527 16:26:19.313405  7349 net.cpp:435] inception_4e/5x5_reduce -> inception_4e/5x5_reduce
I0527 16:26:19.313414  7349 net.cpp:163] Setting up inception_4e/5x5_reduce
I0527 16:26:19.336050  7349 net.cpp:170] Top shape: 10 32 14 14 (62720)
I0527 16:26:19.336069  7349 layer_factory.hpp:74] Creating layer inception_4e/relu_5x5_reduce
I0527 16:26:19.336078  7349 net.cpp:99] Creating Layer inception_4e/relu_5x5_reduce
I0527 16:26:19.336084  7349 net.cpp:479] inception_4e/relu_5x5_reduce <- inception_4e/5x5_reduce
I0527 16:26:19.336091  7349 net.cpp:130] This layer is inheriting previous layer's sync mode: 1
I0527 16:26:19.336096  7349 net.cpp:424] inception_4e/relu_5x5_reduce -> inception_4e/5x5_reduce (in-place)
I0527 16:26:19.336103  7349 net.cpp:163] Setting up inception_4e/relu_5x5_reduce
I0527 16:26:19.336668  7349 net.cpp:170] Top shape: 10 32 14 14 (62720)
I0527 16:26:19.336681  7349 layer_factory.hpp:74] Creating layer inception_4e/5x5
I0527 16:26:19.336693  7349 net.cpp:99] Creating Layer inception_4e/5x5
I0527 16:26:19.336697  7349 net.cpp:479] inception_4e/5x5 <- inception_4e/5x5_reduce
I0527 16:26:19.336704  7349 net.cpp:130] This layer is inheriting previous layer's sync mode: 1
I0527 16:26:19.336711  7349 net.cpp:435] inception_4e/5x5 -> inception_4e/5x5
I0527 16:26:19.336720  7349 net.cpp:163] Setting up inception_4e/5x5
I0527 16:26:19.365762  7349 net.cpp:170] Top shape: 10 128 14 14 (250880)
I0527 16:26:19.365787  7349 layer_factory.hpp:74] Creating layer inception_4e/relu_5x5
I0527 16:26:19.365802  7349 net.cpp:99] Creating Layer inception_4e/relu_5x5
I0527 16:26:19.365809  7349 net.cpp:479] inception_4e/relu_5x5 <- inception_4e/5x5
I0527 16:26:19.365818  7349 net.cpp:130] This layer is inheriting previous layer's sync mode: 1
I0527 16:26:19.365833  7349 net.cpp:424] inception_4e/relu_5x5 -> inception_4e/5x5 (in-place)
I0527 16:26:19.365845  7349 net.cpp:163] Setting up inception_4e/relu_5x5
I0527 16:26:19.366204  7349 net.cpp:170] Top shape: 10 128 14 14 (250880)
I0527 16:26:19.366215  7349 layer_factory.hpp:74] Creating layer inception_4e/pool
I0527 16:26:19.366223  7349 layer_factory.cpp:69] CUDNN does not support padding or multiple tops. Using Caffe's own pooling layer.
I0527 16:26:19.366235  7349 net.cpp:99] Creating Layer inception_4e/pool
I0527 16:26:19.366243  7349 net.cpp:479] inception_4e/pool <- inception_4d/output_inception_4d/output_0_split_3
I0527 16:26:19.366251  7349 net.cpp:130] This layer is inheriting previous layer's sync mode: 1
I0527 16:26:19.366259  7349 net.cpp:435] inception_4e/pool -> inception_4e/pool
I0527 16:26:19.366271  7349 net.cpp:163] Setting up inception_4e/pool
I0527 16:26:19.366284  7349 net.cpp:170] Top shape: 10 528 14 14 (1034880)
I0527 16:26:19.366291  7349 layer_factory.hpp:74] Creating layer inception_4e/pool_proj
I0527 16:26:19.366305  7349 net.cpp:99] Creating Layer inception_4e/pool_proj
I0527 16:26:19.366313  7349 net.cpp:479] inception_4e/pool_proj <- inception_4e/pool
I0527 16:26:19.366320  7349 net.cpp:130] This layer is inheriting previous layer's sync mode: 1
I0527 16:26:19.366331  7349 net.cpp:435] inception_4e/pool_proj -> inception_4e/pool_proj
I0527 16:26:19.366343  7349 net.cpp:163] Setting up inception_4e/pool_proj
I0527 16:26:19.402838  7349 net.cpp:170] Top shape: 10 128 14 14 (250880)
I0527 16:26:19.402863  7349 layer_factory.hpp:74] Creating layer inception_4e/relu_pool_proj
I0527 16:26:19.402875  7349 net.cpp:99] Creating Layer inception_4e/relu_pool_proj
I0527 16:26:19.402882  7349 net.cpp:479] inception_4e/relu_pool_proj <- inception_4e/pool_proj
I0527 16:26:19.402890  7349 net.cpp:130] This layer is inheriting previous layer's sync mode: 1
I0527 16:26:19.402897  7349 net.cpp:424] inception_4e/relu_pool_proj -> inception_4e/pool_proj (in-place)
I0527 16:26:19.402907  7349 net.cpp:163] Setting up inception_4e/relu_pool_proj
I0527 16:26:19.403239  7349 net.cpp:170] Top shape: 10 128 14 14 (250880)
I0527 16:26:19.403249  7349 layer_factory.hpp:74] Creating layer inception_4e/output
I0527 16:26:19.403259  7349 net.cpp:99] Creating Layer inception_4e/output
I0527 16:26:19.403265  7349 net.cpp:479] inception_4e/output <- inception_4e/1x1
I0527 16:26:19.403273  7349 net.cpp:479] inception_4e/output <- inception_4e/3x3
I0527 16:26:19.403280  7349 net.cpp:479] inception_4e/output <- inception_4e/5x5
I0527 16:26:19.403287  7349 net.cpp:479] inception_4e/output <- inception_4e/pool_proj
I0527 16:26:19.403293  7349 net.cpp:130] This layer is inheriting previous layer's sync mode: 1
I0527 16:26:19.403304  7349 net.cpp:435] inception_4e/output -> inception_4e/output
I0527 16:26:19.403316  7349 net.cpp:163] Setting up inception_4e/output
I0527 16:26:19.403326  7349 net.cpp:170] Top shape: 10 832 14 14 (1630720)
I0527 16:26:19.403333  7349 layer_factory.hpp:74] Creating layer CAM_conv
I0527 16:26:19.403347  7349 net.cpp:99] Creating Layer CAM_conv
I0527 16:26:19.403352  7349 net.cpp:479] CAM_conv <- inception_4e/output
I0527 16:26:19.403359  7349 net.cpp:130] This layer is inheriting previous layer's sync mode: 1
I0527 16:26:19.403369  7349 net.cpp:435] CAM_conv -> CAM_conv
I0527 16:26:19.403379  7349 net.cpp:163] Setting up CAM_conv
I0527 16:26:19.574725  7349 net.cpp:170] Top shape: 10 1024 14 14 (2007040)
I0527 16:26:19.574769  7349 layer_factory.hpp:74] Creating layer CAM_relu
I0527 16:26:19.574785  7349 net.cpp:99] Creating Layer CAM_relu
I0527 16:26:19.574793  7349 net.cpp:479] CAM_relu <- CAM_conv
I0527 16:26:19.574805  7349 net.cpp:130] This layer is inheriting previous layer's sync mode: 1
I0527 16:26:19.574812  7349 net.cpp:424] CAM_relu -> CAM_conv (in-place)
I0527 16:26:19.574825  7349 net.cpp:163] Setting up CAM_relu
I0527 16:26:19.575259  7349 net.cpp:170] Top shape: 10 1024 14 14 (2007040)
I0527 16:26:19.575273  7349 layer_factory.hpp:74] Creating layer CAM_pool
I0527 16:26:19.575294  7349 net.cpp:99] Creating Layer CAM_pool
I0527 16:26:19.575300  7349 net.cpp:479] CAM_pool <- CAM_conv
I0527 16:26:19.575309  7349 net.cpp:130] This layer is inheriting previous layer's sync mode: 1
I0527 16:26:19.575316  7349 net.cpp:435] CAM_pool -> CAM_pool
I0527 16:26:19.575330  7349 net.cpp:163] Setting up CAM_pool
I0527 16:26:19.578701  7349 net.cpp:170] Top shape: 10 1024 1 1 (10240)
I0527 16:26:19.578740  7349 layer_factory.hpp:74] Creating layer myCAM_fc
I0527 16:26:19.578773  7349 net.cpp:99] Creating Layer myCAM_fc
I0527 16:26:19.578784  7349 net.cpp:479] myCAM_fc <- CAM_pool
I0527 16:26:19.578797  7349 net.cpp:130] This layer is inheriting previous layer's sync mode: 1
I0527 16:26:19.578815  7349 net.cpp:435] myCAM_fc -> myCAM_fc
I0527 16:26:19.578835  7349 net.cpp:163] Setting up myCAM_fc
I0527 16:26:19.578958  7349 net.cpp:170] Top shape: 10 5 (50)
I0527 16:26:19.578979  7349 layer_factory.hpp:74] Creating layer prob
I0527 16:26:19.578997  7349 net.cpp:99] Creating Layer prob
I0527 16:26:19.579007  7349 net.cpp:479] prob <- myCAM_fc
I0527 16:26:19.579017  7349 net.cpp:130] This layer is inheriting previous layer's sync mode: 1
I0527 16:26:19.579027  7349 net.cpp:435] prob -> prob
I0527 16:26:19.579041  7349 net.cpp:163] Setting up prob
I0527 16:26:19.579516  7349 net.cpp:170] Top shape: 10 5 (50)
I0527 16:26:19.579531  7349 net.cpp:244] prob does not need backward computation.
I0527 16:26:19.579541  7349 net.cpp:244] myCAM_fc does not need backward computation.
I0527 16:26:19.579551  7349 net.cpp:244] CAM_pool does not need backward computation.
I0527 16:26:19.579560  7349 net.cpp:244] CAM_relu does not need backward computation.
I0527 16:26:19.579569  7349 net.cpp:244] CAM_conv does not need backward computation.
…
